…
#      1.22     0.2518      33280  models.layers.yolo_layer.C3               torch.Size([1, 128, 46, 81])
#      0.38     0.0254      13530  models.head.Detect                        [torch.Size([1, 64, 46, 81]), torch.Size([1, 128, 23, 41]), torch.Size([1, 256, 12, 21])]
#     13.83     2.5649    2687482  Total use cuda:0
#     13.83     2.5649    2687482  Per image use cuda:0
#Model(
#  2.687 M, 100.000% Params, 1.272 GFLOPs, 100.000% FLOPs,
#  (model): Sequential(
#    2.687 M, 100.000% Params, 1.272 GFLOPs, 100.000% FLOPs,
#    (0): Conv(
#      0.001 M, 0.035% Params, 0.014 GFLOPs, 1.069% FLOPs,
#      (conv): Conv2d(0.001 M, 0.032% Params, 0.013 GFLOPs, 0.995% FLOPs, 3, 32, kernel_size=(3, 3), stride=(6, 6), padding=(2, 2), bias=False)
#      (bn): BatchNorm2d(0.0 M, 0.002% Params, 0.001 GFLOPs, 0.074% FLOPs, 32, eps=0.001, momentum=0.03, affine=True, track_running_stats=True)
#      (act): SiLU(0.0 M, 0.000% Params, 0.0 GFLOPs, 0.000% FLOPs, inplace=True)
#    )
#    (1): Conv(
#      0.019 M, 0.691% Params, 0.069 GFLOPs, 5.435% FLOPs,
#      (conv): Conv2d(0.018 M, 0.686% Params, 0.069 GFLOPs, 5.397% FLOPs, 32, 64, kernel_size=(3, 3), stride=(2, 2), padding=(1, 1), bias=False)
#      (bn): BatchNorm2d(0.0 M, 0.005% Params, 0.0 GFLOPs, 0.037% FLOPs, 64, eps=0.001, momentum=0.03, affine=True, track_running_stats=True)
#      (act): SiLU(0.0 M, 0.000% Params, 0.0 GFLOPs, 0.000% FLOPs, inplace=True)
#    )
#    (2): C3(
#      0.029 M, 1.086% Params, 0.109 GFLOPs, 8.546% FLOPs,
#      (cv1): Conv(
#        0.002 M, 0.079% Params, 0.008 GFLOPs, 0.618% FLOPs,
#        (conv): Conv2d(0.002 M, 0.076% Params, 0.008 GFLOPs, 0.600% FLOPs, 64, 32, kernel_size=(1, 1), stride=(1, 1), bias=False)
#        (bn): BatchNorm2d(0.0 M, 0.002% Params, 0.0 GFLOPs, 0.019% FLOPs, 32, eps=0.001, momentum=0.03, affine=True, track_running_stats=True)
#        (act): SiLU(0.0 M, 0.000% Params, 0.0 GFLOPs, 0.000% FLOPs, inplace=True)
#      )
#      (cv2): Conv(
#        0.002 M, 0.079% Params, 0.008 GFLOPs, 0.618% FLOPs,
#        (conv): Conv2d(0.002 M, 0.076% Params, 0.008 GFLOPs, 0.600% FLOPs, 64, 32, kernel_size=(1, 1), stride=(1, 1), bias=False)
#        (bn): BatchNorm2d(0.0 M, 0.002% Params, 0.0 GFLOPs, 0.019% FLOPs, 32, eps=0.001, momentum=0.03, affine=True, track_running_stats=True)
#        (act): SiLU(0.0 M, 0.000% Params, 0.0 GFLOPs, 0.000% FLOPs, inplace=True)
#      )
#      (cv3): Conv(
#        0.004 M, 0.157% Params, 0.016 GFLOPs, 1.237% FLOPs,
#        (conv): Conv2d(0.004 M, 0.152% Params, 0.015 GFLOPs, 1.199% FLOPs, 64, 64, kernel_size=(1, 1), stride=(1, 1), bias=False)
#        (bn): BatchNorm2d(0.0 M, 0.005% Params, 0.0 GFLOPs, 0.037% FLOPs, 64, eps=0.001, momentum=0.03, affine=True, track_running_stats=True)
#        (act): SiLU(0.0 M, 0.000% Params, 0.0 GFLOPs, 0.000% FLOPs, inplace=True)
#      )
#      (m): Sequential(
#        0.021 M, 0.772% Params, 0.077 GFLOPs, 6.072% FLOPs,
#        (0): Bottleneck(
#          0.01 M, 0.386% Params, 0.039 GFLOPs, 3.036% FLOPs,
#          (cv1): Conv(
#            0.001 M, 0.040% Params, 0.004 GFLOPs, 0.319% FLOPs,
#            (conv): Conv2d(0.001 M, 0.038% Params, 0.004 GFLOPs, 0.300% FLOPs, 32, 32, kernel_size=(1, 1), stride=(1, 1), bias=False)
#            (bn): BatchNorm2d(0.0 M, 0.002% Params, 0.0 GFLOPs, 0.019% FLOPs, 32, eps=0.001, momentum=0.03, affine=True, track_running_stats=True)
#            (act): SiLU(0.0 M, 0.000% Params, 0.0 GFLOPs, 0.000% FLOPs, inplace=True)
#          )
#          (cv2): Conv(
#            0.009 M, 0.345% Params, 0.035 GFLOPs, 2.717% FLOPs,
#            (conv): Conv2d(0.009 M, 0.343% Params, 0.034 GFLOPs, 2.699% FLOPs, 32, 32, kernel_size=(3, 3), stride=(1, 1), padding=(1, 1), bias=False)
#            (bn): BatchNorm2d(0.0 M, 0.002% Params, 0.0 GFLOPs, 0.019% FLOPs, 32, eps=0.001, momentum=0.03, affine=True, track_running_stats=True)
#            (act): SiLU(0.0 M, 0.000% Params, 0.0 GFLOPs, 0.000% FLOPs, inplace=True)
#          )
#        )
#        (1): Bottleneck(
#          0.01 M, 0.386% Params, 0.039 GFLOPs, 3.036% FLOPs,
#          (cv1): Conv(
#            0.001 M, 0.040% Params, 0.004 GFLOPs, 0.319% FLOPs,
#            (conv): Conv2d(0.001 M, 0.038% Params, 0.004 GFLOPs, 0.300% FLOPs, 32, 32, kernel_size=(1, 1), stride=(1, 1), bias=False)
#            (bn): BatchNorm2d(0.0 M, 0.002% Params, 0.0 GFLOPs, 0.019% FLOPs, 32, eps=0.001, momentum=0.03, affine=True, track_running_stats=True)
#            (act): SiLU(0.0 M, 0.000% Params, 0.0 GFLOPs, 0.000% FLOPs, inplace=True)
#          )
#          (cv2): Conv(
#            0.009 M, 0.345% Params, 0.035 GFLOPs, 2.717% FLOPs,
#            (conv): Conv2d(0.009 M, 0.343% Params, 0.034 GFLOPs, 2.699% FLOPs, 32, 32, kernel_size=(3, 3), stride=(1, 1), padding=(1, 1), bias=False)
#            (bn): BatchNorm2d(0.0 M, 0.002% Params, 0.0 GFLOPs, 0.019% FLOPs, 32, eps=0.001, momentum=0.03, affine=True, track_running_stats=True)
#            (act): SiLU(0.0 M, 0.000% Params, 0.0 GFLOPs, 0.000% FLOPs, inplace=True)
#          )
#        )
#      )
#    )
#    (3): Conv(
#      0.074 M, 2.753% Params, 0.07 GFLOPs, 5.483% FLOPs,
#      (conv): Conv2d(0.074 M, 2.743% Params, 0.07 GFLOPs, 5.464% FLOPs, 64, 128, kernel_size=(3, 3), stride=(2, 2), padding=(1, 1), bias=False)
#      (bn): BatchNorm2d(0.0 M, 0.010% Params, 0.0 GFLOPs, 0.019% FLOPs, 128, eps=0.001, momentum=0.03, affine=True, track_running_stats=True)
#      (act): SiLU(0.0 M, 0.000% Params, 0.0 GFLOPs, 0.000% FLOPs, inplace=True)
#    )
#    (4): C3(
#      0.198 M, 7.373% Params, 0.187 GFLOPs, 14.684% FLOPs,
#      (cv1): Conv(
#        0.008 M, 0.310% Params, 0.008 GFLOPs, 0.617% FLOPs,
#        (conv): Conv2d(0.008 M, 0.305% Params, 0.008 GFLOPs, 0.607% FLOPs, 128, 64, kernel_size=(1, 1), stride=(1, 1), bias=False)
#        (bn): BatchNorm2d(0.0 M, 0.005% Params, 0.0 GFLOPs, 0.009% FLOPs, 64, eps=0.001, momentum=0.03, affine=True, track_running_stats=True)
#        (act): SiLU(0.0 M, 0.000% Params, 0.0 GFLOPs, 0.000% FLOPs, inplace=True)
#      )
#      (cv2): Conv(
#        0.008 M, 0.310% Params, 0.008 GFLOPs, 0.617% FLOPs,
#        (conv): Conv2d(0.008 M, 0.305% Params, 0.008 GFLOPs, 0.607% FLOPs, 128, 64, kernel_size=(1, 1), stride=(1, 1), bias=False)
#        (bn): BatchNorm2d(0.0 M, 0.005% Params, 0.0 GFLOPs, 0.009% FLOPs, 64, eps=0.001, momentum=0.03, affine=True, track_running_stats=True)
#        (act): SiLU(0.0 M, 0.000% Params, 0.0 GFLOPs, 0.000% FLOPs, inplace=True)
#      )
#      (cv3): Conv(
#        0.017 M, 0.619% Params, 0.016 GFLOPs, 1.233% FLOPs,
#        (conv): Conv2d(0.016 M, 0.610% Params, 0.015 GFLOPs, 1.214% FLOPs, 128, 128, kernel_size=(1, 1), stride=(1, 1), bias=False)
#        (bn): BatchNorm2d(0.0 M, 0.010% Params, 0.0 GFLOPs, 0.019% FLOPs, 128, eps=0.001, momentum=0.03, affine=True, track_running_stats=True)
#        (act): SiLU(0.0 M, 0.000% Params, 0.0 GFLOPs, 0.000% FLOPs, inplace=True)
#      )
#      (m): Sequential(
#        0.165 M, 6.135% Params, 0.155 GFLOPs, 12.218% FLOPs,
#        (0): Bottleneck(
#          0.041 M, 1.534% Params, 0.039 GFLOPs, 3.054% FLOPs,
#          (cv1): Conv(
#            0.004 M, 0.157% Params, 0.004 GFLOPs, 0.313% FLOPs,
#            (conv): Conv2d(0.004 M, 0.152% Params, 0.004 GFLOPs, 0.304% FLOPs, 64, 64, kernel_size=(1, 1), stride=(1, 1), bias=False)
#            (bn): BatchNorm2d(0.0 M, 0.005% Params, 0.0 GFLOPs, 0.009% FLOPs, 64, eps=0.001, momentum=0.03, affine=True, track_running_stats=True)
#            (act): SiLU(0.0 M, 0.000% Params, 0.0 GFLOPs, 0.000% FLOPs, inplace=True)
#          )
#          (cv2): Conv(
#            0.037 M, 1.376% Params, 0.035 GFLOPs, 2.741% FLOPs,
#            (conv): Conv2d(0.037 M, 1.372% Params, 0.035 GFLOPs, 2.732% FLOPs, 64, 64, kernel_size=(3, 3), stride=(1, 1), padding=(1, 1), bias=False)
#            (bn): BatchNorm2d(0.0 M, 0.005% Params, 0.0 GFLOPs, 0.009% FLOPs, 64, eps=0.001, momentum=0.03, affine=True, track_running_stats=True)
#            (act): SiLU(0.0 M, 0.000% Params, 0.0 GFLOPs, 0.000% FLOPs, inplace=True)
#          )
#        )
#        (1): Bottleneck(
#          0.041 M, 1.534% Params, 0.039 GFLOPs, 3.054% FLOPs,
#          (cv1): Conv(
#            0.004 M, 0.157% Params, 0.004 GFLOPs, 0.313% FLOPs,
#            (conv): Conv2d(0.004 M, 0.152% Params, 0.004 GFLOPs, 0.304% FLOPs, 64, 64, kernel_size=(1, 1), stride=(1, 1), bias=False)
#            (bn): BatchNorm2d(0.0 M, 0.005% Params, 0.0 GFLOPs, 0.009% FLOPs, 64, eps=0.001, momentum=0.03, affine=True, track_running_stats=True)
#            (act): SiLU(0.0 M, 0.000% Params, 0.0 GFLOPs, 0.000% FLOPs, inplace=True)
#          )
#          (cv2): Conv(
#            0.037 M, 1.376% Params, 0.035 GFLOPs, 2.741% FLOPs,
#            (conv): Conv2d(0.037 M, 1.372% Params, 0.035 GFLOPs, 2.732% FLOPs, 64, 64, kernel_size=(3, 3), stride=(1, 1), padding=(1, 1), bias=False)
#            (bn): BatchNorm2d(0.0 M, 0.005% Params, 0.0 GFLOPs, 0.009% FLOPs, 64, eps=0.001, momentum=0.03, affine=True, track_running_stats=True)
#            (act): SiLU(0.0 M, 0.000% Params, 0.0 GFLOPs, 0.000% FLOPs, inplace=True)
#          )
#        )
#        (2): Bottleneck(
#          0.041 M, 1.534% Params, 0.039 GFLOPs, 3.054% FLOPs,
#          (cv1): Conv(
#            0.004 M, 0.157% Params, 0.004 GFLOPs, 0.313% FLOPs,
#            (conv): Conv2d(0.004 M, 0.152% Params, 0.004 GFLOPs, 0.304% FLOPs, 64, 64, kernel_size=(1, 1), stride=(1, 1), bias=False)
#            (bn): BatchNorm2d(0.0 M, 0.005% Params, 0.0 GFLOPs, 0.009% FLOPs, 64, eps=0.001, momentum=0.03, affine=True, track_running_stats=True)
#            (act): SiLU(0.0 M, 0.000% Params, 0.0 GFLOPs, 0.000% FLOPs, inplace=True)
#          )
#          (cv2): Conv(
#            0.037 M, 1.376% Params, 0.035 GFLOPs, 2.741% FLOPs,
#            (conv): Conv2d(0.037 M, 1.372% Params, 0.035 GFLOPs, 2.732% FLOPs, 64, 64, kernel_size=(3, 3), stride=(1, 1), padding=(1, 1), bias=False)
#            (bn): BatchNorm2d(0.0 M, 0.005% Params, 0.0 GFLOPs, 0.009% FLOPs, 64, eps=0.001, momentum=0.03, affine=True, track_running_stats=True)
#            (act): SiLU(0.0 M, 0.000% Params, 0.0 GFLOPs, 0.000% FLOPs, inplace=True)
#          )
#        )
#        (3): Bottleneck(
#          0.041 M, 1.534% Params, 0.039 GFLOPs, 3.054% FLOPs,
#          (cv1): Conv(
#            0.004 M, 0.157% Params, 0.004 GFLOPs, 0.313% FLOPs,
#            (conv): Conv2d(0.004 M, 0.152% Params, 0.004 GFLOPs, 0.304% FLOPs, 64, 64, kernel_size=(1, 1), stride=(1, 1), bias=False)
#            (bn): BatchNorm2d(0.0 M, 0.005% Params, 0.0 GFLOPs, 0.009% FLOPs, 64, eps=0.001, momentum=0.03, affine=True, track_running_stats=True)
#            (act): SiLU(0.0 M, 0.000% Params, 0.0 GFLOPs, 0.000% FLOPs, inplace=True)
#          )
#          (cv2): Conv(
#            0.037 M, 1.376% Params, 0.035 GFLOPs, 2.741% FLOPs,
#            (conv): Conv2d(0.037 M, 1.372% Params, 0.035 GFLOPs, 2.732% FLOPs, 64, 64, kernel_size=(3, 3), stride=(1, 1), padding=(1, 1), bias=False)
#            (bn): BatchNorm2d(0.0 M, 0.005% Params, 0.0 GFLOPs, 0.009% FLOPs, 64, eps=0.001, momentum=0.03, affine=True, track_running_stats=True)
#            (act): SiLU(0.0 M, 0.000% Params, 0.0 GFLOPs, 0.000% FLOPs, inplace=True)
#          )
#        )
#      )
#    )
#    (5): Conv(
#      0.295 M, 10.993% Params, 0.074 GFLOPs, 5.851% FLOPs,
#      (conv): Conv2d(0.295 M, 10.974% Params, 0.074 GFLOPs, 5.841% FLOPs, 128, 256, kernel_size=(3, 3), stride=(2, 2), padding=(1, 1), bias=False)
#      (bn): BatchNorm2d(0.001 M, 0.019% Params, 0.0 GFLOPs, 0.010% FLOPs, 256, eps=0.001, momentum=0.03, affine=True, track_running_stats=True)
#      (act): SiLU(0.0 M, 0.000% Params, 0.0 GFLOPs, 0.000% FLOPs, inplace=True)
#    )
#    (6): C3(
#      1.118 M, 41.608% Params, 0.282 GFLOPs, 22.145% FLOPs,
#      (cv1): Conv(
#        0.033 M, 1.229% Params, 0.008 GFLOPs, 0.654% FLOPs,
#        (conv): Conv2d(0.033 M, 1.219% Params, 0.008 GFLOPs, 0.649% FLOPs, 256, 128, kernel_size=(1, 1), stride=(1, 1), bias=False)
#        (bn): BatchNorm2d(0.0 M, 0.010% Params, 0.0 GFLOPs, 0.005% FLOPs, 128, eps=0.001, momentum=0.03, affine=True, track_running_stats=True)
#        (act): SiLU(0.0 M, 0.000% Params, 0.0 GFLOPs, 0.000% FLOPs, inplace=True)
#      )
#      (cv2): Conv(
#        0.033 M, 1.229% Params, 0.008 GFLOPs, 0.654% FLOPs,
#        (conv): Conv2d(0.033 M, 1.219% Params, 0.008 GFLOPs, 0.649% FLOPs, 256, 128, kernel_size=(1, 1), stride=(1, 1), bias=False)
#        (bn): BatchNorm2d(0.0 M, 0.010% Params, 0.0 GFLOPs, 0.005% FLOPs, 128, eps=0.001, momentum=0.03, affine=True, track_running_stats=True)
#        (act): SiLU(0.0 M, 0.000% Params, 0.0 GFLOPs, 0.000% FLOPs, inplace=True)
#      )
#      (cv3): Conv(
#        0.066 M, 2.458% Params, 0.017 GFLOPs, 1.308% FLOPs,
#        (conv): Conv2d(0.066 M, 2.439% Params, 0.017 GFLOPs, 1.298% FLOPs, 256, 256, kernel_size=(1, 1), stride=(1, 1), bias=False)
#        (bn): BatchNorm2d(0.001 M, 0.019% Params, 0.0 GFLOPs, 0.010% FLOPs, 256, eps=0.001, momentum=0.03, affine=True, track_running_stats=True)
#        (act): SiLU(0.0 M, 0.000% Params, 0.0 GFLOPs, 0.000% FLOPs, inplace=True)
#      )
#      (m): Sequential(
#        0.986 M, 36.693% Params, 0.249 GFLOPs, 19.529% FLOPs,
#        (0): Bottleneck(
#          0.164 M, 6.115% Params, 0.041 GFLOPs, 3.255% FLOPs,
#          (cv1): Conv(
#            0.017 M, 0.619% Params, 0.004 GFLOPs, 0.330% FLOPs,
#            (conv): Conv2d(0.016 M, 0.610% Params, 0.004 GFLOPs, 0.324% FLOPs, 128, 128, kernel_size=(1, 1), stride=(1, 1), bias=False)
#            (bn): BatchNorm2d(0.0 M, 0.010% Params, 0.0 GFLOPs, 0.005% FLOPs, 128, eps=0.001, momentum=0.03, affine=True, track_running_stats=True)
#            (act): SiLU(0.0 M, 0.000% Params, 0.0 GFLOPs, 0.000% FLOPs, inplace=True)
#          )
#          (cv2): Conv(
#            0.148 M, 5.496% Params, 0.037 GFLOPs, 2.925% FLOPs,
#            (conv): Conv2d(0.147 M, 5.487% Params, 0.037 GFLOPs, 2.920% FLOPs, 128, 128, kernel_size=(3, 3), stride=(1, 1), padding=(1, 1), bias=False)
#            (bn): BatchNorm2d(0.0 M, 0.010% Params, 0.0 GFLOPs, 0.005% FLOPs, 128, eps=0.001, momentum=0.03, affine=True, track_running_stats=True)
#            (act): SiLU(0.0 M, 0.000% Params, 0.0 GFLOPs, 0.000% FLOPs, inplace=True)
#          )
#        )
#        (1): Bottleneck(
#          0.164 M, 6.115% Params, 0.041 GFLOPs, 3.255% FLOPs,
#          (cv1): Conv(
#            0.017 M, 0.619% Params, 0.004 GFLOPs, 0.330% FLOPs,
#            (conv): Conv2d(0.016 M, 0.610% Params, 0.004 GFLOPs, 0.324% FLOPs, 128, 128, kernel_size=(1, 1), stride=(1, 1), bias=False)
#            (bn): BatchNorm2d(0.0 M, 0.010% Params, 0.0 GFLOPs, 0.005% FLOPs, 128, eps=0.001, momentum=0.03, affine=True, track_running_stats=True)
#            (act): SiLU(0.0 M, 0.000% Params, 0.0 GFLOPs, 0.000% FLOPs, inplace=True)
#          )
#          (cv2): Conv(
#            0.148 M, 5.496% Params, 0.037 GFLOPs, 2.925% FLOPs,
#            (conv): Conv2d(0.147 M, 5.487% Params, 0.037 GFLOPs, 2.920% FLOPs, 128, 128, kernel_size=(3, 3), stride=(1, 1), padding=(1, 1), bias=False)
#            (bn): BatchNorm2d(0.0 M, 0.010% Params, 0.0 GFLOPs, 0.005% FLOPs, 128, eps=0.001, momentum=0.03, affine=True, track_running_stats=True)
#            (act): SiLU(0.0 M, 0.000% Params, 0.0 GFLOPs, 0.000% FLOPs, inplace=True)
#          )
#        )
#        (2): Bottleneck(
#          0.164 M, 6.115% Params, 0.041 GFLOPs, 3.255% FLOPs,
#          (cv1): Conv(
#            0.017 M, 0.619% Params, 0.004 GFLOPs, 0.330% FLOPs,
#            (conv): Conv2d(0.016 M, 0.610% Params, 0.004 GFLOPs, 0.324% FLOPs, 128, 128, kernel_size=(1, 1), stride=(1, 1), bias=False)
#            (bn): BatchNorm2d(0.0 M, 0.010% Params, 0.0 GFLOPs, 0.005% FLOPs, 128, eps=0.001, momentum=0.03, affine=True, track_running_stats=True)
#            (act): SiLU(0.0 M, 0.000% Params, 0.0 GFLOPs, 0.000% FLOPs, inplace=True)
#          )
#          (cv2): Conv(
#            0.148 M, 5.496% Params, 0.037 GFLOPs, 2.925% FLOPs,
#            (conv): Conv2d(0.147 M, 5.487% Params, 0.037 GFLOPs, 2.920% FLOPs, 128, 128, kernel_size=(3, 3), stride=(1, 1), padding=(1, 1), bias=False)
#            (bn): BatchNorm2d(0.0 M, 0.010% Params, 0.0 GFLOPs, 0.005% FLOPs, 128, eps=0.001, momentum=0.03, affine=True, track_running_stats=True)
#            (act): SiLU(0.0 M, 0.000% Params, 0.0 GFLOPs, 0.000% FLOPs, inplace=True)
#          )
#        )
#        (3): Bottleneck(
#          0.164 M, 6.115% Params, 0.041 GFLOPs, 3.255% FLOPs,
#          (cv1): Conv(
#            0.017 M, 0.619% Params, 0.004 GFLOPs, 0.330% FLOPs,
#            (conv): Conv2d(0.016 M, 0.610% Params, 0.004 GFLOPs, 0.324% FLOPs, 128, 128, kernel_size=(1, 1), stride=(1, 1), bias=False)
#            (bn): BatchNorm2d(0.0 M, 0.010% Params, 0.0 GFLOPs, 0.005% FLOPs, 128, eps=0.001, momentum=0.03, affine=True, track_running_stats=True)
#            (act): SiLU(0.0 M, 0.000% Params, 0.0 GFLOPs, 0.000% FLOPs, inplace=True)
#          )
#          (cv2): Conv(
#            0.148 M, 5.496% Params, 0.037 GFLOPs, 2.925% FLOPs,
#            (conv): Conv2d(0.147 M, 5.487% Params, 0.037 GFLOPs, 2.920% FLOPs, 128, 128, kernel_size=(3, 3), stride=(1, 1), padding=(1, 1), bias=False)
#            (bn): BatchNorm2d(0.0 M, 0.010% Params, 0.0 GFLOPs, 0.005% FLOPs, 128, eps=0.001, momentum=0.03, affine=True, track_running_stats=True)
#            (act): SiLU(0.0 M, 0.000% Params, 0.0 GFLOPs, 0.000% FLOPs, inplace=True)
#          )
#        )
#        (4): Bottleneck(
#          0.164 M, 6.115% Params, 0.041 GFLOPs, 3.255% FLOPs,
#          (cv1): Conv(
#            0.017 M, 0.619% Params, 0.004 GFLOPs, 0.330% FLOPs,
#            (conv): Conv2d(0.016 M, 0.610% Params, 0.004 GFLOPs, 0.324% FLOPs, 128, 128, kernel_size=(1, 1), stride=(1, 1), bias=False)
#            (bn): BatchNorm2d(0.0 M, 0.010% Params, 0.0 GFLOPs, 0.005% FLOPs, 128, eps=0.001, momentum=0.03, affine=True, track_running_stats=True)
#            (act): SiLU(0.0 M, 0.000% Params, 0.0 GFLOPs, 0.000% FLOPs, inplace=True)
#          )
#          (cv2): Conv(
#            0.148 M, 5.496% Params, 0.037 GFLOPs, 2.925% FLOPs,
#            (conv): Conv2d(0.147 M, 5.487% Params, 0.037 GFLOPs, 2.920% FLOPs, 128, 128, kernel_size=(3, 3), stride=(1, 1), padding=(1, 1), bias=False)
#            (bn): BatchNorm2d(0.0 M, 0.010% Params, 0.0 GFLOPs, 0.005% FLOPs, 128, eps=0.001, momentum=0.03, affine=True, track_running_stats=True)
#            (act): SiLU(0.0 M, 0.000% Params, 0.0 GFLOPs, 0.000% FLOPs, inplace=True)
#          )
#        )
#        (5): Bottleneck(
#          0.164 M, 6.115% Params, 0.041 GFLOPs, 3.255% FLOPs,
#          (cv1): Conv(
#            0.017 M, 0.619% Params, 0.004 GFLOPs, 0.330% FLOPs,
#            (conv): Conv2d(0.016 M, 0.610% Params, 0.004 GFLOPs, 0.324% FLOPs, 128, 128, kernel_size=(1, 1), stride=(1, 1), bias=False)
#            (bn): BatchNorm2d(0.0 M, 0.010% Params, 0.0 GFLOPs, 0.005% FLOPs, 128, eps=0.001, momentum=0.03, affine=True, track_running_stats=True)
#            (act): SiLU(0.0 M, 0.000% Params, 0.0 GFLOPs, 0.000% FLOPs, inplace=True)
#          )
#          (cv2): Conv(
#            0.148 M, 5.496% Params, 0.037 GFLOPs, 2.925% FLOPs,
#            (conv): Conv2d(0.147 M, 5.487% Params, 0.037 GFLOPs, 2.920% FLOPs, 128, 128, kernel_size=(3, 3), stride=(1, 1), padding=(1, 1), bias=False)
#            (bn): BatchNorm2d(0.0 M, 0.010% Params, 0.0 GFLOPs, 0.005% FLOPs, 128, eps=0.001, momentum=0.03, affine=True, track_running_stats=True)
#            (act): SiLU(0.0 M, 0.000% Params, 0.0 GFLOPs, 0.000% FLOPs, inplace=True)
#          )
#        )
#      )
#    )
#    (7): SPPF(
#      0.165 M, 6.125% Params, 0.042 GFLOPs, 3.268% FLOPs,
#      (cv1): Conv(
#        0.033 M, 1.229% Params, 0.008 GFLOPs, 0.654% FLOPs,
#        (conv): Conv2d(0.033 M, 1.219% Params, 0.008 GFLOPs, 0.649% FLOPs, 256, 128, kernel_size=(1, 1), stride=(1, 1), bias=False)
#        (bn): BatchNorm2d(0.0 M, 0.010% Params, 0.0 GFLOPs, 0.005% FLOPs, 128, eps=0.001, momentum=0.03, affine=True, track_running_stats=True)
#        (act): SiLU(0.0 M, 0.000% Params, 0.0 GFLOPs, 0.000% FLOPs, inplace=True)
#      )
#      (cv2): Conv(
#        0.132 M, 4.896% Params, 0.033 GFLOPs, 2.606% FLOPs,
#        (conv): Conv2d(0.131 M, 4.877% Params, 0.033 GFLOPs, 2.596% FLOPs, 512, 256, kernel_size=(1, 1), stride=(1, 1), bias=False)
#        (bn): BatchNorm2d(0.001 M, 0.019% Params, 0.0 GFLOPs, 0.010% FLOPs, 256, eps=0.001, momentum=0.03, affine=True, track_running_stats=True)
#        (act): SiLU(0.0 M, 0.000% Params, 0.0 GFLOPs, 0.000% FLOPs, inplace=True)
#      )
#      (m): MaxPool2d(0.0 M, 0.000% Params, 0.0 GFLOPs, 0.008% FLOPs, kernel_size=5, stride=1, padding=2, dilation=1, ceil_mode=False)
#    )
#    (8): Conv(
#      0.066 M, 2.458% Params, 0.017 GFLOPs, 1.308% FLOPs,
#      (conv): Conv2d(0.066 M, 2.439% Params, 0.017 GFLOPs, 1.298% FLOPs, 256, 256, kernel_size=(1, 1), stride=(1, 1), bias=False)
#      (bn): BatchNorm2d(0.001 M, 0.019% Params, 0.0 GFLOPs, 0.010% FLOPs, 256, eps=0.001, momentum=0.03, affine=True, track_running_stats=True)
#      (act): SiLU(0.0 M, 0.000% Params, 0.0 GFLOPs, 0.000% FLOPs, inplace=True)
#    )
#    (9): C3(
#      0.461 M, 17.146% Params, 0.116 GFLOPs, 9.126% FLOPs,
#      (cv1): Conv(
#        0.033 M, 1.229% Params, 0.008 GFLOPs, 0.654% FLOPs,
#        (conv): Conv2d(0.033 M, 1.219% Params, 0.008 GFLOPs, 0.649% FLOPs, 256, 128, kernel_size=(1, 1), stride=(1, 1), bias=False)
#        (bn): BatchNorm2d(0.0 M, 0.010% Params, 0.0 GFLOPs, 0.005% FLOPs, 128, eps=0.001, momentum=0.03, affine=True, track_running_stats=True)
#        (act): SiLU(0.0 M, 0.000% Params, 0.0 GFLOPs, 0.000% FLOPs, inplace=True)
#      )
#      (cv2): Conv(
#        0.033 M, 1.229% Params, 0.008 GFLOPs, 0.654% FLOPs,
#        (conv): Conv2d(0.033 M, 1.219% Params, 0.008 GFLOPs, 0.649% FLOPs, 256, 128, kernel_size=(1, 1), stride=(1, 1), bias=False)
#        (bn): BatchNorm2d(0.0 M, 0.010% Params, 0.0 GFLOPs, 0.005% FLOPs, 128, eps=0.001, momentum=0.03, affine=True, track_running_stats=True)
#        (act): SiLU(0.0 M, 0.000% Params, 0.0 GFLOPs, 0.000% FLOPs, inplace=True)
#      )
#      (cv3): Conv(
#        0.066 M, 2.458% Params, 0.017 GFLOPs, 1.308% FLOPs,
#        (conv): Conv2d(0.066 M, 2.439% Params, 0.017 GFLOPs, 1.298% FLOPs, 256, 256, kernel_size=(1, 1), stride=(1, 1), bias=False)
#        (bn): BatchNorm2d(0.001 M, 0.019% Params, 0.0 GFLOPs, 0.010% FLOPs, 256, eps=0.001, momentum=0.03, affine=True, track_running_stats=True)
#        (act): SiLU(0.0 M, 0.000% Params, 0.0 GFLOPs, 0.000% FLOPs, inplace=True)
#      )
#      (m): Sequential(
#        0.329 M, 12.231% Params, 0.083 GFLOPs, 6.510% FLOPs,
#        (0): Bottleneck(
#          0.164 M, 6.115% Params, 0.041 GFLOPs, 3.255% FLOPs,
#          (cv1): Conv(
#            0.017 M, 0.619% Params, 0.004 GFLOPs, 0.330% FLOPs,
#            (conv): Conv2d(0.016 M, 0.610% Params, 0.004 GFLOPs, 0.324% FLOPs, 128, 128, kernel_size=(1, 1), stride=(1, 1), bias=False)
#            (bn): BatchNorm2d(0.0 M, 0.010% Params, 0.0 GFLOPs, 0.005% FLOPs, 128, eps=0.001, momentum=0.03, affine=True, track_running_stats=True)
#            (act): SiLU(0.0 M, 0.000% Params, 0.0 GFLOPs, 0.000% FLOPs, inplace=True)
#          )
#          (cv2): Conv(
#            0.148 M, 5.496% Params, 0.037 GFLOPs, 2.925% FLOPs,
#            (conv): Conv2d(0.147 M, 5.487% Params, 0.037 GFLOPs, 2.920% FLOPs, 128, 128, kernel_size=(3, 3), stride=(1, 1), padding=(1, 1), bias=False)
#            (bn): BatchNorm2d(0.0 M, 0.010% Params, 0.0 GFLOPs, 0.005% FLOPs, 128, eps=0.001, momentum=0.03, affine=True, track_running_stats=True)
#            (act): SiLU(0.0 M, 0.000% Params, 0.0 GFLOPs, 0.000% FLOPs, inplace=True)
#          )
#        )
#        (1): Bottleneck(
#          0.164 M, 6.115% Params, 0.041 GFLOPs, 3.255% FLOPs,
#          (cv1): Conv(
#            0.017 M, 0.619% Params, 0.004 GFLOPs, 0.330% FLOPs,
#            (conv): Conv2d(0.016 M, 0.610% Params, 0.004 GFLOPs, 0.324% FLOPs, 128, 128, kernel_size=(1, 1), stride=(1, 1), bias=False)
#            (bn): BatchNorm2d(0.0 M, 0.010% Params, 0.0 GFLOPs, 0.005% FLOPs, 128, eps=0.001, momentum=0.03, affine=True, track_running_stats=True)
#            (act): SiLU(0.0 M, 0.000% Params, 0.0 GFLOPs, 0.000% FLOPs, inplace=True)
#          )
#          (cv2): Conv(
#            0.148 M, 5.496% Params, 0.037 GFLOPs, 2.925% FLOPs,
#            (conv): Conv2d(0.147 M, 5.487% Params, 0.037 GFLOPs, 2.920% FLOPs, 128, 128, kernel_size=(3, 3), stride=(1, 1), padding=(1, 1), bias=False)
#            (bn): BatchNorm2d(0.0 M, 0.010% Params, 0.0 GFLOPs, 0.005% FLOPs, 128, eps=0.001, momentum=0.03, affine=True, track_running_stats=True)
#            (act): SiLU(0.0 M, 0.000% Params, 0.0 GFLOPs, 0.000% FLOPs, inplace=True)
#          )
#        )
#      )
#    )
#    (10): Conv(
#      0.066 M, 2.458% Params, 0.017 GFLOPs, 1.308% FLOPs,
#      (conv): Conv2d(0.066 M, 2.439% Params, 0.017 GFLOPs, 1.298% FLOPs, 256, 256, kernel_size=(1, 1), stride=(1, 1), bias=False)
#      (bn): BatchNorm2d(0.001 M, 0.019% Params, 0.0 GFLOPs, 0.010% FLOPs, 256, eps=0.001, momentum=0.03, affine=True, track_running_stats=True)
#      (act): SiLU(0.0 M, 0.000% Params, 0.0 GFLOPs, 0.000% FLOPs, inplace=True)
#    )
#    (11): Upsample_Concat(0.0 M, 0.000% Params, 0.0 GFLOPs, 0.000% FLOPs, )
#    (12): C3(
#      0.132 M, 4.915% Params, 0.125 GFLOPs, 9.790% FLOPs,
#      (cv1): Conv(
#        0.017 M, 0.614% Params, 0.016 GFLOPs, 1.224% FLOPs,
#        (conv): Conv2d(0.016 M, 0.610% Params, 0.015 GFLOPs, 1.214% FLOPs, 256, 64, kernel_size=(1, 1), stride=(1, 1), bias=False)
#        (bn): BatchNorm2d(0.0 M, 0.005% Params, 0.0 GFLOPs, 0.009% FLOPs, 64, eps=0.001, momentum=0.03, affine=True, track_running_stats=True)
#        (act): SiLU(0.0 M, 0.000% Params, 0.0 GFLOPs, 0.000% FLOPs, inplace=True)
#      )
#      (cv2): Conv(
#        0.017 M, 0.614% Params, 0.016 GFLOPs, 1.224% FLOPs,
#        (conv): Conv2d(0.016 M, 0.610% Params, 0.015 GFLOPs, 1.214% FLOPs, 256, 64, kernel_size=(1, 1), stride=(1, 1), bias=False)
#        (bn): BatchNorm2d(0.0 M, 0.005% Params, 0.0 GFLOPs, 0.009% FLOPs, 64, eps=0.001, momentum=0.03, affine=True, track_running_stats=True)
#        (act): SiLU(0.0 M, 0.000% Params, 0.0 GFLOPs, 0.000% FLOPs, inplace=True)
#      )
#      (cv3): Conv(
#        0.017 M, 0.619% Params, 0.016 GFLOPs, 1.233% FLOPs,
#        (conv): Conv2d(0.016 M, 0.610% Params, 0.015 GFLOPs, 1.214% FLOPs, 128, 128, kernel_size=(1, 1), stride=(1, 1), bias=False)
#        (bn): BatchNorm2d(0.0 M, 0.010% Params, 0.0 GFLOPs, 0.019% FLOPs, 128, eps=0.001, momentum=0.03, affine=True, track_running_stats=True)
#        (act): SiLU(0.0 M, 0.000% Params, 0.0 GFLOPs, 0.000% FLOPs, inplace=True)
#      )
#      (m): Sequential(
#        0.082 M, 3.067% Params, 0.078 GFLOPs, 6.109% FLOPs,
#        (0): Bottleneck(
#          0.041 M, 1.534% Params, 0.039 GFLOPs, 3.054% FLOPs,
#          (cv1): Conv(
#            0.004 M, 0.157% Params, 0.004 GFLOPs, 0.313% FLOPs,
#            (conv): Conv2d(0.004 M, 0.152% Params, 0.004 GFLOPs, 0.304% FLOPs, 64, 64, kernel_size=(1, 1), stride=(1, 1), bias=False)
#            (bn): BatchNorm2d(0.0 M, 0.005% Params, 0.0 GFLOPs, 0.009% FLOPs, 64, eps=0.001, momentum=0.03, affine=True, track_running_stats=True)
#            (act): SiLU(0.0 M, 0.000% Params, 0.0 GFLOPs, 0.000% FLOPs, inplace=True)
#          )
#          (cv2): Conv(
#            0.037 M, 1.376% Params, 0.035 GFLOPs, 2.741% FLOPs,
#            (conv): Conv2d(0.037 M, 1.372% Params, 0.035 GFLOPs, 2.732% FLOPs, 64, 64, kernel_size=(3, 3), stride=(1, 1), padding=(1, 1), bias=False)
#            (bn): BatchNorm2d(0.0 M, 0.005% Params, 0.0 GFLOPs, 0.009% FLOPs, 64, eps=0.001, momentum=0.03, affine=True, track_running_stats=True)
#            (act): SiLU(0.0 M, 0.000% Params, 0.0 GFLOPs, 0.000% FLOPs, inplace=True)
#          )
#        )
#        (1): Bottleneck(
#          0.041 M, 1.534% Params, 0.039 GFLOPs, 3.054% FLOPs,
#          (cv1): Conv(
#            0.004 M, 0.157% Params, 0.004 GFLOPs, 0.313% FLOPs,
#            (conv): Conv2d(0.004 M, 0.152% Params, 0.004 GFLOPs, 0.304% FLOPs, 64, 64, kernel_size=(1, 1), stride=(1, 1), bias=False)
#            (bn): BatchNorm2d(0.0 M, 0.005% Params, 0.0 GFLOPs, 0.009% FLOPs, 64, eps=0.001, momentum=0.03, affine=True, track_running_stats=True)
#            (act): SiLU(0.0 M, 0.000% Params, 0.0 GFLOPs, 0.000% FLOPs, inplace=True)
#          )
#          (cv2): Conv(
#            0.037 M, 1.376% Params, 0.035 GFLOPs, 2.741% FLOPs,
#            (conv): Conv2d(0.037 M, 1.372% Params, 0.035 GFLOPs, 2.732% FLOPs, 64, 64, kernel_size=(3, 3), stride=(1, 1), padding=(1, 1), bias=False)
#            (bn): BatchNorm2d(0.0 M, 0.005% Params, 0.0 GFLOPs, 0.009% FLOPs, 64, eps=0.001, momentum=0.03, affine=True, track_running_stats=True)
#            (act): SiLU(0.0 M, 0.000% Params, 0.0 GFLOPs, 0.000% FLOPs, inplace=True)
#          )
#        )
#      )
#    )
#    (13): Conv(
#      0.017 M, 0.619% Params, 0.016 GFLOPs, 1.233% FLOPs,
#      (conv): Conv2d(0.016 M, 0.610% Params, 0.015 GFLOPs, 1.214% FLOPs, 128, 128, kernel_size=(1, 1), stride=(1, 1), bias=False)
#      (bn): BatchNorm2d(0.0 M, 0.010% Params, 0.0 GFLOPs, 0.019% FLOPs, 128, eps=0.001, momentum=0.03, affine=True, track_running_stats=True)
#      (act): SiLU(0.0 M, 0.000% Params, 0.0 GFLOPs, 0.000% FLOPs, inplace=True)
#    )
#    (14): Upsample_Concat(0.0 M, 0.000% Params, 0.0 GFLOPs, 0.000% FLOPs, )
#    (15): C3(
#      0.033 M, 1.238% Params, 0.124 GFLOPs, 9.745% FLOPs,
#      (cv1): Conv(
#        0.004 M, 0.155% Params, 0.016 GFLOPs, 1.218% FLOPs,
#        (conv): Conv2d(0.004 M, 0.152% Params, 0.015 GFLOPs, 1.199% FLOPs, 128, 32, kernel_size=(1, 1), stride=(1, 1), bias=False)
#        (bn): BatchNorm2d(0.0 M, 0.002% Params, 0.0 GFLOPs, 0.019% FLOPs, 32, eps=0.001, momentum=0.03, affine=True, track_running_stats=True)
#        (act): SiLU(0.0 M, 0.000% Params, 0.0 GFLOPs, 0.000% FLOPs, inplace=True)
#      )
#      (cv2): Conv(
#        0.004 M, 0.155% Params, 0.016 GFLOPs, 1.218% FLOPs,
#        (conv): Conv2d(0.004 M, 0.152% Params, 0.015 GFLOPs, 1.199% FLOPs, 128, 32, kernel_size=(1, 1), stride=(1, 1), bias=False)
#        (bn): BatchNorm2d(0.0 M, 0.002% Params, 0.0 GFLOPs, 0.019% FLOPs, 32, eps=0.001, momentum=0.03, affine=True, track_running_stats=True)
#        (act): SiLU(0.0 M, 0.000% Params, 0.0 GFLOPs, 0.000% FLOPs, inplace=True)
#      )
#      (cv3): Conv(
#        0.004 M, 0.157% Params, 0.016 GFLOPs, 1.237% FLOPs,
#        (conv): Conv2d(0.004 M, 0.152% Params, 0.015 GFLOPs, 1.199% FLOPs, 64, 64, kernel_size=(1, 1), stride=(1, 1), bias=False)
#        (bn): BatchNorm2d(0.0 M, 0.005% Params, 0.0 GFLOPs, 0.037% FLOPs, 64, eps=0.001, momentum=0.03, affine=True, track_running_stats=True)
#        (act): SiLU(0.0 M, 0.000% Params, 0.0 GFLOPs, 0.000% FLOPs, inplace=True)
#      )
#      (m): Sequential(
#        0.021 M, 0.772% Params, 0.077 GFLOPs, 6.072% FLOPs,
#        (0): Bottleneck(
#          0.01 M, 0.386% Params, 0.039 GFLOPs, 3.036% FLOPs,
#          (cv1): Conv(
#            0.001 M, 0.040% Params, 0.004 GFLOPs, 0.319% FLOPs,
#            (conv): Conv2d(0.001 M, 0.038% Params, 0.004 GFLOPs, 0.300% FLOPs, 32, 32, kernel_size=(1, 1), stride=(1, 1), bias=False)
#            (bn): BatchNorm2d(0.0 M, 0.002% Params, 0.0 GFLOPs, 0.019% FLOPs, 32, eps=0.001, momentum=0.03, affine=True, track_running_stats=True)
#            (act): SiLU(0.0 M, 0.000% Params, 0.0 GFLOPs, 0.000% FLOPs, inplace=True)
#          )
#          (cv2): Conv(
#            0.009 M, 0.345% Params, 0.035 GFLOPs, 2.717% FLOPs,
#            (conv): Conv2d(0.009 M, 0.343% Params, 0.034 GFLOPs, 2.699% FLOPs, 32, 32, kernel_size=(3, 3), stride=(1, 1), padding=(1, 1), bias=False)
#            (bn): BatchNorm2d(0.0 M, 0.002% Params, 0.0 GFLOPs, 0.019% FLOPs, 32, eps=0.001, momentum=0.03, affine=True, track_running_stats=True)
#            (act): SiLU(0.0 M, 0.000% Params, 0.0 GFLOPs, 0.000% FLOPs, inplace=True)
#          )
#        )
#        (1): Bottleneck(
#          0.01 M, 0.386% Params, 0.039 GFLOPs, 3.036% FLOPs,
#          (cv1): Conv(
#            0.001 M, 0.040% Params, 0.004 GFLOPs, 0.319% FLOPs,
#            (conv): Conv2d(0.001 M, 0.038% Params, 0.004 GFLOPs, 0.300% FLOPs, 32, 32, kernel_size=(1, 1), stride=(1, 1), bias=False)
#            (bn): BatchNorm2d(0.0 M, 0.002% Params, 0.0 GFLOPs, 0.019% FLOPs, 32, eps=0.001, momentum=0.03, affine=True, track_running_stats=True)
#            (act): SiLU(0.0 M, 0.000% Params, 0.0 GFLOPs, 0.000% FLOPs, inplace=True)
#          )
#          (cv2): Conv(
#            0.009 M, 0.345% Params, 0.035 GFLOPs, 2.717% FLOPs,
#            (conv): Conv2d(0.009 M, 0.343% Params, 0.034 GFLOPs, 2.699% FLOPs, 32, 32, kernel_size=(3, 3), stride=(1, 1), padding=(1, 1), bias=False)
#            (bn): BatchNorm2d(0.0 M, 0.002% Params, 0.0 GFLOPs, 0.019% FLOPs, 32, eps=0.001, momentum=0.03, affine=True, track_running_stats=True)
#            (act): SiLU(0.0 M, 0.000% Params, 0.0 GFLOPs, 0.000% FLOPs, inplace=True)
#          )
#        )
#      )
#    )
#    (16): Detect(
#      0.014 M, 0.503% Params, 0.013 GFLOPs, 1.010% FLOPs,
#      (m): ModuleList(
#        0.014 M, 0.503% Params, 0.013 GFLOPs, 1.010% FLOPs,
#        (0): Conv2d(0.002 M, 0.073% Params, 0.007 GFLOPs, 0.571% FLOPs, 64, 30, kernel_size=(1, 1), stride=(1, 1))
#        (1): Conv2d(0.004 M, 0.144% Params, 0.004 GFLOPs, 0.287% FLOPs, 128, 30, kernel_size=(1, 1), stride=(1, 1))
#        (2): Conv2d(0.008 M, 0.287% Params, 0.002 GFLOPs, 0.153% FLOPs, 256, 30, kernel_size=(1, 1), stride=(1, 1))
#      )
#    )
#  )
#)
#==============================
#Input shape: (3, 540, 960)
#Flops: 1.27 GFLOPs
#Params: 2.69 M
#=============================