…
# 23                -1     33280  models.layers.yolo_layer.C3             [128, 64, 2, False]
# 24      [23, 19, 15]     12177  models.head.Detect                      [[64, 128, 256], 4, [[4, 2, 3, 6, 12, 5], [10, 8, 13, 25, 38, 18], [28, 34, 57, 33, 49, 60]]]
#Model Summary: 369layers, 8390193 parameters, 8390193 gradients,image size is (640, 640), 83.6 GFLOPs in cpu
#Model(
#  8.39 M, 100.000% Params, 53.036 GFLOPs, 100.000% FLOPs,
#  (model): Sequential(
#    8.39 M, 100.000% Params, 53.036 GFLOPs, 100.000% FLOPs,
#    (0): Conv(
#      0.001 M, 0.011% Params, 0.482 GFLOPs, 0.909% FLOPs,
#      (conv): Conv2d(0.001 M, 0.010% Params, 0.449 GFLOPs, 0.846% FLOPs, 3, 32, kernel_size=(3, 3), stride=(1, 1), bias=False)
#      (bn): BatchNorm2d(0.0 M, 0.001% Params, 0.033 GFLOPs, 0.063% FLOPs, 32, eps=0.001, momentum=0.03, affine=True, track_running_stats=True)
#      (act): SiLU(0.0 M, 0.000% Params, 0.0 GFLOPs, 0.000% FLOPs, inplace=True)
#    )
#    (1): Conv(
#      0.019 M, 0.221% Params, 2.409 GFLOPs, 4.543% FLOPs,
#      (conv): Conv2d(0.018 M, 0.220% Params, 2.393 GFLOPs, 4.511% FLOPs, 32, 64, kernel_size=(3, 3), stride=(2, 2), padding=(1, 1), bias=False)
#      (bn): BatchNorm2d(0.0 M, 0.002% Params, 0.017 GFLOPs, 0.031% FLOPs, 64, eps=0.001, momentum=0.03, affine=True, track_running_stats=True)
#      (act): SiLU(0.0 M, 0.000% Params, 0.0 GFLOPs, 0.000% FLOPs, inplace=True)
#    )
#    (2): C3(
#      0.029 M, 0.348% Params, 3.788 GFLOPs, 7.143% FLOPs,
#      (cv1): Conv(
#        0.002 M, 0.025% Params, 0.274 GFLOPs, 0.517% FLOPs,
#        (conv): Conv2d(0.002 M, 0.024% Params, 0.266 GFLOPs, 0.501% FLOPs, 64, 32, kernel_size=(1, 1), stride=(1, 1), bias=False)
#        (bn): BatchNorm2d(0.0 M, 0.001% Params, 0.008 GFLOPs, 0.016% FLOPs, 32, eps=0.001, momentum=0.03, affine=True, track_running_stats=True)
#        (act): SiLU(0.0 M, 0.000% Params, 0.0 GFLOPs, 0.000% FLOPs, inplace=True)
#      )
#      (cv2): Conv(
#        0.002 M, 0.025% Params, 0.274 GFLOPs, 0.517% FLOPs,
#        (conv): Conv2d(0.002 M, 0.024% Params, 0.266 GFLOPs, 0.501% FLOPs, 64, 32, kernel_size=(1, 1), stride=(1, 1), bias=False)
#        (bn): BatchNorm2d(0.0 M, 0.001% Params, 0.008 GFLOPs, 0.016% FLOPs, 32, eps=0.001, momentum=0.03, affine=True, track_running_stats=True)
#        (act): SiLU(0.0 M, 0.000% Params, 0.0 GFLOPs, 0.000% FLOPs, inplace=True)
#      )
#      (cv3): Conv(
#        0.004 M, 0.050% Params, 0.548 GFLOPs, 1.034% FLOPs,
#        (conv): Conv2d(0.004 M, 0.049% Params, 0.532 GFLOPs, 1.003% FLOPs, 64, 64, kernel_size=(1, 1), stride=(1, 1), bias=False)
#        (bn): BatchNorm2d(0.0 M, 0.002% Params, 0.017 GFLOPs, 0.031% FLOPs, 64, eps=0.001, momentum=0.03, affine=True, track_running_stats=True)
#        (act): SiLU(0.0 M, 0.000% Params, 0.0 GFLOPs, 0.000% FLOPs, inplace=True)
#      )
#      (m): Sequential(
#        0.021 M, 0.247% Params, 2.692 GFLOPs, 5.075% FLOPs,
#        (0): Bottleneck(
#          0.01 M, 0.124% Params, 1.346 GFLOPs, 2.538% FLOPs,
#          (cv1): Conv(
#            0.001 M, 0.013% Params, 0.141 GFLOPs, 0.266% FLOPs,
#            (conv): Conv2d(0.001 M, 0.012% Params, 0.133 GFLOPs, 0.251% FLOPs, 32, 32, kernel_size=(1, 1), stride=(1, 1), bias=False)
#            (bn): BatchNorm2d(0.0 M, 0.001% Params, 0.008 GFLOPs, 0.016% FLOPs, 32, eps=0.001, momentum=0.03, affine=True, track_running_stats=True)
#            (act): SiLU(0.0 M, 0.000% Params, 0.0 GFLOPs, 0.000% FLOPs, inplace=True)
#          )
#          (cv2): Conv(
#            0.009 M, 0.111% Params, 1.205 GFLOPs, 2.271% FLOPs,
#            (conv): Conv2d(0.009 M, 0.110% Params, 1.196 GFLOPs, 2.256% FLOPs, 32, 32, kernel_size=(3, 3), stride=(1, 1), padding=(1, 1), bias=False)
#            (bn): BatchNorm2d(0.0 M, 0.001% Params, 0.008 GFLOPs, 0.016% FLOPs, 32, eps=0.001, momentum=0.03, affine=True, track_running_stats=True)
#            (act): SiLU(0.0 M, 0.000% Params, 0.0 GFLOPs, 0.000% FLOPs, inplace=True)
#          )
#        )
#        (1): Bottleneck(
#          0.01 M, 0.124% Params, 1.346 GFLOPs, 2.538% FLOPs,
#          (cv1): Conv(
#            0.001 M, 0.013% Params, 0.141 GFLOPs, 0.266% FLOPs,
#            (conv): Conv2d(0.001 M, 0.012% Params, 0.133 GFLOPs, 0.251% FLOPs, 32, 32, kernel_size=(1, 1), stride=(1, 1), bias=False)
#            (bn): BatchNorm2d(0.0 M, 0.001% Params, 0.008 GFLOPs, 0.016% FLOPs, 32, eps=0.001, momentum=0.03, affine=True, track_running_stats=True)
#            (act): SiLU(0.0 M, 0.000% Params, 0.0 GFLOPs, 0.000% FLOPs, inplace=True)
#          )
#          (cv2): Conv(
#            0.009 M, 0.111% Params, 1.205 GFLOPs, 2.271% FLOPs,
#            (conv): Conv2d(0.009 M, 0.110% Params, 1.196 GFLOPs, 2.256% FLOPs, 32, 32, kernel_size=(3, 3), stride=(1, 1), padding=(1, 1), bias=False)
#            (bn): BatchNorm2d(0.0 M, 0.001% Params, 0.008 GFLOPs, 0.016% FLOPs, 32, eps=0.001, momentum=0.03, affine=True, track_running_stats=True)
#            (act): SiLU(0.0 M, 0.000% Params, 0.0 GFLOPs, 0.000% FLOPs, inplace=True)
#          )
#        )
#      )
#    )
#    (3): Conv(
#      0.074 M, 0.882% Params, 2.415 GFLOPs, 4.553% FLOPs,
#      (conv): Conv2d(0.074 M, 0.879% Params, 2.406 GFLOPs, 4.537% FLOPs, 64, 128, kernel_size=(3, 3), stride=(2, 2), padding=(1, 1), bias=False)
#      (bn): BatchNorm2d(0.0 M, 0.003% Params, 0.008 GFLOPs, 0.016% FLOPs, 128, eps=0.001, momentum=0.03, affine=True, track_running_stats=True)
#      (act): SiLU(0.0 M, 0.000% Params, 0.0 GFLOPs, 0.000% FLOPs, inplace=True)
#    )
#    (4): C3(
#      0.198 M, 2.362% Params, 6.467 GFLOPs, 12.194% FLOPs,
#      (cv1): Conv(
#        0.008 M, 0.099% Params, 0.272 GFLOPs, 0.512% FLOPs,
#        (conv): Conv2d(0.008 M, 0.098% Params, 0.267 GFLOPs, 0.504% FLOPs, 128, 64, kernel_size=(1, 1), stride=(1, 1), bias=False)
#        (bn): BatchNorm2d(0.0 M, 0.002% Params, 0.004 GFLOPs, 0.008% FLOPs, 64, eps=0.001, momentum=0.03, affine=True, track_running_stats=True)
#        (act): SiLU(0.0 M, 0.000% Params, 0.0 GFLOPs, 0.000% FLOPs, inplace=True)
#      )
#      (cv2): Conv(
#        0.008 M, 0.099% Params, 0.272 GFLOPs, 0.512% FLOPs,
#        (conv): Conv2d(0.008 M, 0.098% Params, 0.267 GFLOPs, 0.504% FLOPs, 128, 64, kernel_size=(1, 1), stride=(1, 1), bias=False)
#        (bn): BatchNorm2d(0.0 M, 0.002% Params, 0.004 GFLOPs, 0.008% FLOPs, 64, eps=0.001, momentum=0.03, affine=True, track_running_stats=True)
#        (act): SiLU(0.0 M, 0.000% Params, 0.0 GFLOPs, 0.000% FLOPs, inplace=True)
#      )
#      (cv3): Conv(
#        0.017 M, 0.198% Params, 0.543 GFLOPs, 1.024% FLOPs,
#        (conv): Conv2d(0.016 M, 0.195% Params, 0.535 GFLOPs, 1.008% FLOPs, 128, 128, kernel_size=(1, 1), stride=(1, 1), bias=False)
#        (bn): BatchNorm2d(0.0 M, 0.003% Params, 0.008 GFLOPs, 0.016% FLOPs, 128, eps=0.001, momentum=0.03, affine=True, track_running_stats=True)
#        (act): SiLU(0.0 M, 0.000% Params, 0.0 GFLOPs, 0.000% FLOPs, inplace=True)
#      )
#      (m): Sequential(
#        0.165 M, 1.965% Params, 5.381 GFLOPs, 10.146% FLOPs,
#        (0): Bottleneck(
#          0.041 M, 0.491% Params, 1.345 GFLOPs, 2.537% FLOPs,
#          (cv1): Conv(
#            0.004 M, 0.050% Params, 0.138 GFLOPs, 0.260% FLOPs,
#            (conv): Conv2d(0.004 M, 0.049% Params, 0.134 GFLOPs, 0.252% FLOPs, 64, 64, kernel_size=(1, 1), stride=(1, 1), bias=False)
#            (bn): BatchNorm2d(0.0 M, 0.002% Params, 0.004 GFLOPs, 0.008% FLOPs, 64, eps=0.001, momentum=0.03, affine=True, track_running_stats=True)
#            (act): SiLU(0.0 M, 0.000% Params, 0.0 GFLOPs, 0.000% FLOPs, inplace=True)
#          )
#          (cv2): Conv(
#            0.037 M, 0.441% Params, 1.207 GFLOPs, 2.277% FLOPs,
#            (conv): Conv2d(0.037 M, 0.439% Params, 1.203 GFLOPs, 2.269% FLOPs, 64, 64, kernel_size=(3, 3), stride=(1, 1), padding=(1, 1), bias=False)
#            (bn): BatchNorm2d(0.0 M, 0.002% Params, 0.004 GFLOPs, 0.008% FLOPs, 64, eps=0.001, momentum=0.03, affine=True, track_running_stats=True)
#            (act): SiLU(0.0 M, 0.000% Params, 0.0 GFLOPs, 0.000% FLOPs, inplace=True)
#          )
#        )
#        (1): Bottleneck(
#          0.041 M, 0.491% Params, 1.345 GFLOPs, 2.537% FLOPs,
#          (cv1): Conv(
#            0.004 M, 0.050% Params, 0.138 GFLOPs, 0.260% FLOPs,
#            (conv): Conv2d(0.004 M, 0.049% Params, 0.134 GFLOPs, 0.252% FLOPs, 64, 64, kernel_size=(1, 1), stride=(1, 1), bias=False)
#            (bn): BatchNorm2d(0.0 M, 0.002% Params, 0.004 GFLOPs, 0.008% FLOPs, 64, eps=0.001, momentum=0.03, affine=True, track_running_stats=True)
#            (act): SiLU(0.0 M, 0.000% Params, 0.0 GFLOPs, 0.000% FLOPs, inplace=True)
#          )
#          (cv2): Conv(
#            0.037 M, 0.441% Params, 1.207 GFLOPs, 2.277% FLOPs,
#            (conv): Conv2d(0.037 M, 0.439% Params, 1.203 GFLOPs, 2.269% FLOPs, 64, 64, kernel_size=(3, 3), stride=(1, 1), padding=(1, 1), bias=False)
#            (bn): BatchNorm2d(0.0 M, 0.002% Params, 0.004 GFLOPs, 0.008% FLOPs, 64, eps=0.001, momentum=0.03, affine=True, track_running_stats=True)
#            (act): SiLU(0.0 M, 0.000% Params, 0.0 GFLOPs, 0.000% FLOPs, inplace=True)
#          )
#        )
#        (2): Bottleneck(
#          0.041 M, 0.491% Params, 1.345 GFLOPs, 2.537% FLOPs,
#          (cv1): Conv(
#            0.004 M, 0.050% Params, 0.138 GFLOPs, 0.260% FLOPs,
#            (conv): Conv2d(0.004 M, 0.049% Params, 0.134 GFLOPs, 0.252% FLOPs, 64, 64, kernel_size=(1, 1), stride=(1, 1), bias=False)
#            (bn): BatchNorm2d(0.0 M, 0.002% Params, 0.004 GFLOPs, 0.008% FLOPs, 64, eps=0.001, momentum=0.03, affine=True, track_running_stats=True)
#            (act): SiLU(0.0 M, 0.000% Params, 0.0 GFLOPs, 0.000% FLOPs, inplace=True)
#          )
#          (cv2): Conv(
#            0.037 M, 0.441% Params, 1.207 GFLOPs, 2.277% FLOPs,
#            (conv): Conv2d(0.037 M, 0.439% Params, 1.203 GFLOPs, 2.269% FLOPs, 64, 64, kernel_size=(3, 3), stride=(1, 1), padding=(1, 1), bias=False)
#            (bn): BatchNorm2d(0.0 M, 0.002% Params, 0.004 GFLOPs, 0.008% FLOPs, 64, eps=0.001, momentum=0.03, affine=True, track_running_stats=True)
#            (act): SiLU(0.0 M, 0.000% Params, 0.0 GFLOPs, 0.000% FLOPs, inplace=True)
#          )
#        )
#        (3): Bottleneck(
#          0.041 M, 0.491% Params, 1.345 GFLOPs, 2.537% FLOPs,
#          (cv1): Conv(
#            0.004 M, 0.050% Params, 0.138 GFLOPs, 0.260% FLOPs,
#            (conv): Conv2d(0.004 M, 0.049% Params, 0.134 GFLOPs, 0.252% FLOPs, 64, 64, kernel_size=(1, 1), stride=(1, 1), bias=False)
#            (bn): BatchNorm2d(0.0 M, 0.002% Params, 0.004 GFLOPs, 0.008% FLOPs, 64, eps=0.001, momentum=0.03, affine=True, track_running_stats=True)
#            (act): SiLU(0.0 M, 0.000% Params, 0.0 GFLOPs, 0.000% FLOPs, inplace=True)
#          )
#          (cv2): Conv(
#            0.037 M, 0.441% Params, 1.207 GFLOPs, 2.277% FLOPs,
#            (conv): Conv2d(0.037 M, 0.439% Params, 1.203 GFLOPs, 2.269% FLOPs, 64, 64, kernel_size=(3, 3), stride=(1, 1), padding=(1, 1), bias=False)
#            (bn): BatchNorm2d(0.0 M, 0.002% Params, 0.004 GFLOPs, 0.008% FLOPs, 64, eps=0.001, momentum=0.03, affine=True, track_running_stats=True)
#            (act): SiLU(0.0 M, 0.000% Params, 0.0 GFLOPs, 0.000% FLOPs, inplace=True)
#          )
#        )
#      )
#    )
#    (5): Conv(
#      0.295 M, 3.521% Params, 2.411 GFLOPs, 4.545% FLOPs,
#      (conv): Conv2d(0.295 M, 3.515% Params, 2.406 GFLOPs, 4.537% FLOPs, 128, 256, kernel_size=(3, 3), stride=(2, 2), padding=(1, 1), bias=False)
#      (bn): BatchNorm2d(0.001 M, 0.006% Params, 0.004 GFLOPs, 0.008% FLOPs, 256, eps=0.001, momentum=0.03, affine=True, track_running_stats=True)
#      (act): SiLU(0.0 M, 0.000% Params, 0.0 GFLOPs, 0.000% FLOPs, inplace=True)
#    )
#    (6): C3(
#      1.118 M, 13.328% Params, 9.125 GFLOPs, 17.204% FLOPs,
#      (cv1): Conv(
#        0.033 M, 0.394% Params, 0.269 GFLOPs, 0.508% FLOPs,
#        (conv): Conv2d(0.033 M, 0.391% Params, 0.267 GFLOPs, 0.504% FLOPs, 256, 128, kernel_size=(1, 1), stride=(1, 1), bias=False)
#        (bn): BatchNorm2d(0.0 M, 0.003% Params, 0.002 GFLOPs, 0.004% FLOPs, 128, eps=0.001, momentum=0.03, affine=True, track_running_stats=True)
#        (act): SiLU(0.0 M, 0.000% Params, 0.0 GFLOPs, 0.000% FLOPs, inplace=True)
#      )
#      (cv2): Conv(
#        0.033 M, 0.394% Params, 0.269 GFLOPs, 0.508% FLOPs,
#        (conv): Conv2d(0.033 M, 0.391% Params, 0.267 GFLOPs, 0.504% FLOPs, 256, 128, kernel_size=(1, 1), stride=(1, 1), bias=False)
#        (bn): BatchNorm2d(0.0 M, 0.003% Params, 0.002 GFLOPs, 0.004% FLOPs, 128, eps=0.001, momentum=0.03, affine=True, track_running_stats=True)
#        (act): SiLU(0.0 M, 0.000% Params, 0.0 GFLOPs, 0.000% FLOPs, inplace=True)
#      )
#      (cv3): Conv(
#        0.066 M, 0.787% Params, 0.539 GFLOPs, 1.016% FLOPs,
#        (conv): Conv2d(0.066 M, 0.781% Params, 0.535 GFLOPs, 1.008% FLOPs, 256, 256, kernel_size=(1, 1), stride=(1, 1), bias=False)
#        (bn): BatchNorm2d(0.001 M, 0.006% Params, 0.004 GFLOPs, 0.008% FLOPs, 256, eps=0.001, momentum=0.03, affine=True, track_running_stats=True)
#        (act): SiLU(0.0 M, 0.000% Params, 0.0 GFLOPs, 0.000% FLOPs, inplace=True)
#      )
#      (m): Sequential(
#        0.986 M, 11.753% Params, 8.047 GFLOPs, 15.172% FLOPs,
#        (0): Bottleneck(
#          0.164 M, 1.959% Params, 1.341 GFLOPs, 2.529% FLOPs,
#          (cv1): Conv(
#            0.017 M, 0.198% Params, 0.136 GFLOPs, 0.256% FLOPs,
#            (conv): Conv2d(0.016 M, 0.195% Params, 0.134 GFLOPs, 0.252% FLOPs, 128, 128, kernel_size=(1, 1), stride=(1, 1), bias=False)
#            (bn): BatchNorm2d(0.0 M, 0.003% Params, 0.002 GFLOPs, 0.004% FLOPs, 128, eps=0.001, momentum=0.03, affine=True, track_running_stats=True)
#            (act): SiLU(0.0 M, 0.000% Params, 0.0 GFLOPs, 0.000% FLOPs, inplace=True)
#          )
#          (cv2): Conv(
#            0.148 M, 1.761% Params, 1.205 GFLOPs, 2.273% FLOPs,
#            (conv): Conv2d(0.147 M, 1.757% Params, 1.203 GFLOPs, 2.269% FLOPs, 128, 128, kernel_size=(3, 3), stride=(1, 1), padding=(1, 1), bias=False)
#            (bn): BatchNorm2d(0.0 M, 0.003% Params, 0.002 GFLOPs, 0.004% FLOPs, 128, eps=0.001, momentum=0.03, affine=True, track_running_stats=True)
#            (act): SiLU(0.0 M, 0.000% Params, 0.0 GFLOPs, 0.000% FLOPs, inplace=True)
#          )
#        )
#        (1): Bottleneck(
#          0.164 M, 1.959% Params, 1.341 GFLOPs, 2.529% FLOPs,
#          (cv1): Conv(
#            0.017 M, 0.198% Params, 0.136 GFLOPs, 0.256% FLOPs,
#            (conv): Conv2d(0.016 M, 0.195% Params, 0.134 GFLOPs, 0.252% FLOPs, 128, 128, kernel_size=(1, 1), stride=(1, 1), bias=False)
#            (bn): BatchNorm2d(0.0 M, 0.003% Params, 0.002 GFLOPs, 0.004% FLOPs, 128, eps=0.001, momentum=0.03, affine=True, track_running_stats=True)
#            (act): SiLU(0.0 M, 0.000% Params, 0.0 GFLOPs, 0.000% FLOPs, inplace=True)
#          )
#          (cv2): Conv(
#            0.148 M, 1.761% Params, 1.205 GFLOPs, 2.273% FLOPs,
#            (conv): Conv2d(0.147 M, 1.757% Params, 1.203 GFLOPs, 2.269% FLOPs, 128, 128, kernel_size=(3, 3), stride=(1, 1), padding=(1, 1), bias=False)
#            (bn): BatchNorm2d(0.0 M, 0.003% Params, 0.002 GFLOPs, 0.004% FLOPs, 128, eps=0.001, momentum=0.03, affine=True, track_running_stats=True)
#            (act): SiLU(0.0 M, 0.000% Params, 0.0 GFLOPs, 0.000% FLOPs, inplace=True)
#          )
#        )
#        (2): Bottleneck(
#          0.164 M, 1.959% Params, 1.341 GFLOPs, 2.529% FLOPs,
#          (cv1): Conv(
#            0.017 M, 0.198% Params, 0.136 GFLOPs, 0.256% FLOPs,
#            (conv): Conv2d(0.016 M, 0.195% Params, 0.134 GFLOPs, 0.252% FLOPs, 128, 128, kernel_size=(1, 1), stride=(1, 1), bias=False)
#            (bn): BatchNorm2d(0.0 M, 0.003% Params, 0.002 GFLOPs, 0.004% FLOPs, 128, eps=0.001, momentum=0.03, affine=True, track_running_stats=True)
#            (act): SiLU(0.0 M, 0.000% Params, 0.0 GFLOPs, 0.000% FLOPs, inplace=True)
#          )
#          (cv2): Conv(
#            0.148 M, 1.761% Params, 1.205 GFLOPs, 2.273% FLOPs,
#            (conv): Conv2d(0.147 M, 1.757% Params, 1.203 GFLOPs, 2.269% FLOPs, 128, 128, kernel_size=(3, 3), stride=(1, 1), padding=(1, 1), bias=False)
#            (bn): BatchNorm2d(0.0 M, 0.003% Params, 0.002 GFLOPs, 0.004% FLOPs, 128, eps=0.001, momentum=0.03, affine=True, track_running_stats=True)
#            (act): SiLU(0.0 M, 0.000% Params, 0.0 GFLOPs, 0.000% FLOPs, inplace=True)
#          )
#        )
#        (3): Bottleneck(
#          0.164 M, 1.959% Params, 1.341 GFLOPs, 2.529% FLOPs,
#          (cv1): Conv(
#            0.017 M, 0.198% Params, 0.136 GFLOPs, 0.256% FLOPs,
#            (conv): Conv2d(0.016 M, 0.195% Params, 0.134 GFLOPs, 0.252% FLOPs, 128, 128, kernel_size=(1, 1), stride=(1, 1), bias=False)
#            (bn): BatchNorm2d(0.0 M, 0.003% Params, 0.002 GFLOPs, 0.004% FLOPs, 128, eps=0.001, momentum=0.03, affine=True, track_running_stats=True)
#            (act): SiLU(0.0 M, 0.000% Params, 0.0 GFLOPs, 0.000% FLOPs, inplace=True)
#          )
#          (cv2): Conv(
#            0.148 M, 1.761% Params, 1.205 GFLOPs, 2.273% FLOPs,
#            (conv): Conv2d(0.147 M, 1.757% Params, 1.203 GFLOPs, 2.269% FLOPs, 128, 128, kernel_size=(3, 3), stride=(1, 1), padding=(1, 1), bias=False)
#            (bn): BatchNorm2d(0.0 M, 0.003% Params, 0.002 GFLOPs, 0.004% FLOPs, 128, eps=0.001, momentum=0.03, affine=True, track_running_stats=True)
#            (act): SiLU(0.0 M, 0.000% Params, 0.0 GFLOPs, 0.000% FLOPs, inplace=True)
#          )
#        )
#        (4): Bottleneck(
#          0.164 M, 1.959% Params, 1.341 GFLOPs, 2.529% FLOPs,
#          (cv1): Conv(
#            0.017 M, 0.198% Params, 0.136 GFLOPs, 0.256% FLOPs,
#            (conv): Conv2d(0.016 M, 0.195% Params, 0.134 GFLOPs, 0.252% FLOPs, 128, 128, kernel_size=(1, 1), stride=(1, 1), bias=False)
#            (bn): BatchNorm2d(0.0 M, 0.003% Params, 0.002 GFLOPs, 0.004% FLOPs, 128, eps=0.001, momentum=0.03, affine=True, track_running_stats=True)
#            (act): SiLU(0.0 M, 0.000% Params, 0.0 GFLOPs, 0.000% FLOPs, inplace=True)
#          )
#          (cv2): Conv(
#            0.148 M, 1.761% Params, 1.205 GFLOPs, 2.273% FLOPs,
#            (conv): Conv2d(0.147 M, 1.757% Params, 1.203 GFLOPs, 2.269% FLOPs, 128, 128, kernel_size=(3, 3), stride=(1, 1), padding=(1, 1), bias=False)
#            (bn): BatchNorm2d(0.0 M, 0.003% Params, 0.002 GFLOPs, 0.004% FLOPs, 128, eps=0.001, momentum=0.03, affine=True, track_running_stats=True)
#            (act): SiLU(0.0 M, 0.000% Params, 0.0 GFLOPs, 0.000% FLOPs, inplace=True)
#          )
#        )
#        (5): Bottleneck(
#          0.164 M, 1.959% Params, 1.341 GFLOPs, 2.529% FLOPs,
#          (cv1): Conv(
#            0.017 M, 0.198% Params, 0.136 GFLOPs, 0.256% FLOPs,
#            (conv): Conv2d(0.016 M, 0.195% Params, 0.134 GFLOPs, 0.252% FLOPs, 128, 128, kernel_size=(1, 1), stride=(1, 1), bias=False)
#            (bn): BatchNorm2d(0.0 M, 0.003% Params, 0.002 GFLOPs, 0.004% FLOPs, 128, eps=0.001, momentum=0.03, affine=True, track_running_stats=True)
#            (act): SiLU(0.0 M, 0.000% Params, 0.0 GFLOPs, 0.000% FLOPs, inplace=True)
#          )
#          (cv2): Conv(
#            0.148 M, 1.761% Params, 1.205 GFLOPs, 2.273% FLOPs,
#            (conv): Conv2d(0.147 M, 1.757% Params, 1.203 GFLOPs, 2.269% FLOPs, 128, 128, kernel_size=(3, 3), stride=(1, 1), padding=(1, 1), bias=False)
#            (bn): BatchNorm2d(0.0 M, 0.003% Params, 0.002 GFLOPs, 0.004% FLOPs, 128, eps=0.001, momentum=0.03, affine=True, track_running_stats=True)
#            (act): SiLU(0.0 M, 0.000% Params, 0.0 GFLOPs, 0.000% FLOPs, inplace=True)
#          )
#        )
#      )
#    )
#    (7): Conv(
#      1.181 M, 14.072% Params, 2.409 GFLOPs, 4.541% FLOPs,
#      (conv): Conv2d(1.18 M, 14.060% Params, 2.406 GFLOPs, 4.537% FLOPs, 256, 512, kernel_size=(3, 3), stride=(2, 2), padding=(1, 1), bias=False)
#      (bn): BatchNorm2d(0.001 M, 0.012% Params, 0.002 GFLOPs, 0.004% FLOPs, 512, eps=0.001, momentum=0.03, affine=True, track_running_stats=True)
#      (act): SiLU(0.0 M, 0.000% Params, 0.0 GFLOPs, 0.000% FLOPs, inplace=True)
#    )
#    (8): C3(
#      1.839 M, 21.920% Params, 3.752 GFLOPs, 7.074% FLOPs,
#      (cv1): Conv(
#        0.132 M, 1.568% Params, 0.268 GFLOPs, 0.506% FLOPs,
#        (conv): Conv2d(0.131 M, 1.562% Params, 0.267 GFLOPs, 0.504% FLOPs, 512, 256, kernel_size=(1, 1), stride=(1, 1), bias=False)
#        (bn): BatchNorm2d(0.001 M, 0.006% Params, 0.001 GFLOPs, 0.002% FLOPs, 256, eps=0.001, momentum=0.03, affine=True, track_running_stats=True)
#        (act): SiLU(0.0 M, 0.000% Params, 0.0 GFLOPs, 0.000% FLOPs, inplace=True)
#      )
#      (cv2): Conv(
#        0.132 M, 1.568% Params, 0.268 GFLOPs, 0.506% FLOPs,
#        (conv): Conv2d(0.131 M, 1.562% Params, 0.267 GFLOPs, 0.504% FLOPs, 512, 256, kernel_size=(1, 1), stride=(1, 1), bias=False)
#        (bn): BatchNorm2d(0.001 M, 0.006% Params, 0.001 GFLOPs, 0.002% FLOPs, 256, eps=0.001, momentum=0.03, affine=True, track_running_stats=True)
#        (act): SiLU(0.0 M, 0.000% Params, 0.0 GFLOPs, 0.000% FLOPs, inplace=True)
#      )
#      (cv3): Conv(
#        0.263 M, 3.137% Params, 0.537 GFLOPs, 1.012% FLOPs,
#        (conv): Conv2d(0.262 M, 3.124% Params, 0.535 GFLOPs, 1.008% FLOPs, 512, 512, kernel_size=(1, 1), stride=(1, 1), bias=False)
#        (bn): BatchNorm2d(0.001 M, 0.012% Params, 0.002 GFLOPs, 0.004% FLOPs, 512, eps=0.001, momentum=0.03, affine=True, track_running_stats=True)
#        (act): SiLU(0.0 M, 0.000% Params, 0.0 GFLOPs, 0.000% FLOPs, inplace=True)
#      )
#      (m): Sequential(
#        1.313 M, 15.646% Params, 2.678 GFLOPs, 5.049% FLOPs,
#        (0): Bottleneck(
#          0.656 M, 7.823% Params, 1.339 GFLOPs, 2.525% FLOPs,
#          (cv1): Conv(
#            0.066 M, 0.787% Params, 0.135 GFLOPs, 0.254% FLOPs,
#            (conv): Conv2d(0.066 M, 0.781% Params, 0.134 GFLOPs, 0.252% FLOPs, 256, 256, kernel_size=(1, 1), stride=(1, 1), bias=False)
#            (bn): BatchNorm2d(0.001 M, 0.006% Params, 0.001 GFLOPs, 0.002% FLOPs, 256, eps=0.001, momentum=0.03, affine=True, track_running_stats=True)
#            (act): SiLU(0.0 M, 0.000% Params, 0.0 GFLOPs, 0.000% FLOPs, inplace=True)
#          )
#          (cv2): Conv(
#            0.59 M, 7.036% Params, 1.204 GFLOPs, 2.271% FLOPs,
#            (conv): Conv2d(0.59 M, 7.030% Params, 1.203 GFLOPs, 2.269% FLOPs, 256, 256, kernel_size=(3, 3), stride=(1, 1), padding=(1, 1), bias=False)
#            (bn): BatchNorm2d(0.001 M, 0.006% Params, 0.001 GFLOPs, 0.002% FLOPs, 256, eps=0.001, momentum=0.03, affine=True, track_running_stats=True)
#            (act): SiLU(0.0 M, 0.000% Params, 0.0 GFLOPs, 0.000% FLOPs, inplace=True)
#          )
#        )
#        (1): Bottleneck(
#          0.656 M, 7.823% Params, 1.339 GFLOPs, 2.525% FLOPs,
#          (cv1): Conv(
#            0.066 M, 0.787% Params, 0.135 GFLOPs, 0.254% FLOPs,
#            (conv): Conv2d(0.066 M, 0.781% Params, 0.134 GFLOPs, 0.252% FLOPs, 256, 256, kernel_size=(1, 1), stride=(1, 1), bias=False)
#            (bn): BatchNorm2d(0.001 M, 0.006% Params, 0.001 GFLOPs, 0.002% FLOPs, 256, eps=0.001, momentum=0.03, affine=True, track_running_stats=True)
#            (act): SiLU(0.0 M, 0.000% Params, 0.0 GFLOPs, 0.000% FLOPs, inplace=True)
#          )
#          (cv2): Conv(
#            0.59 M, 7.036% Params, 1.204 GFLOPs, 2.271% FLOPs,
#            (conv): Conv2d(0.59 M, 7.030% Params, 1.203 GFLOPs, 2.269% FLOPs, 256, 256, kernel_size=(3, 3), stride=(1, 1), padding=(1, 1), bias=False)
#            (bn): BatchNorm2d(0.001 M, 0.006% Params, 0.001 GFLOPs, 0.002% FLOPs, 256, eps=0.001, momentum=0.03, affine=True, track_running_stats=True)
#            (act): SiLU(0.0 M, 0.000% Params, 0.0 GFLOPs, 0.000% FLOPs, inplace=True)
#          )
#        )
#      )
#    )
#    (9): SPPF(
#      0.657 M, 7.829% Params, 1.342 GFLOPs, 2.530% FLOPs,
#      (cv1): Conv(
#        0.132 M, 1.568% Params, 0.268 GFLOPs, 0.506% FLOPs,
#        (conv): Conv2d(0.131 M, 1.562% Params, 0.267 GFLOPs, 0.504% FLOPs, 512, 256, kernel_size=(1, 1), stride=(1, 1), bias=False)
#        (bn): BatchNorm2d(0.001 M, 0.006% Params, 0.001 GFLOPs, 0.002% FLOPs, 256, eps=0.001, momentum=0.03, affine=True, track_running_stats=True)
#        (act): SiLU(0.0 M, 0.000% Params, 0.0 GFLOPs, 0.000% FLOPs, inplace=True)
#      )
#      (cv2): Conv(
#        0.525 M, 6.261% Params, 1.072 GFLOPs, 2.021% FLOPs,
#        (conv): Conv2d(0.524 M, 6.249% Params, 1.07 GFLOPs, 2.017% FLOPs, 1024, 512, kernel_size=(1, 1), stride=(1, 1), bias=False)
#        (bn): BatchNorm2d(0.001 M, 0.012% Params, 0.002 GFLOPs, 0.004% FLOPs, 512, eps=0.001, momentum=0.03, affine=True, track_running_stats=True)
#        (act): SiLU(0.0 M, 0.000% Params, 0.0 GFLOPs, 0.000% FLOPs, inplace=True)
#      )
#      (m): MaxPool2d(0.0 M, 0.000% Params, 0.002 GFLOPs, 0.003% FLOPs, kernel_size=5, stride=1, padding=2, dilation=1, ceil_mode=False)
#    )
#    (10): Conv(
#      0.263 M, 3.137% Params, 0.537 GFLOPs, 1.012% FLOPs,
#      (conv): Conv2d(0.262 M, 3.124% Params, 0.535 GFLOPs, 1.008% FLOPs, 512, 512, kernel_size=(1, 1), stride=(1, 1), bias=False)
#      (bn): BatchNorm2d(0.001 M, 0.012% Params, 0.002 GFLOPs, 0.004% FLOPs, 512, eps=0.001, momentum=0.03, affine=True, track_running_stats=True)
#      (act): SiLU(0.0 M, 0.000% Params, 0.0 GFLOPs, 0.000% FLOPs, inplace=True)
#    )
#    (11): C3(
#      1.839 M, 21.920% Params, 3.752 GFLOPs, 7.074% FLOPs,
#      (cv1): Conv(
#        0.132 M, 1.568% Params, 0.268 GFLOPs, 0.506% FLOPs,
#        (conv): Conv2d(0.131 M, 1.562% Params, 0.267 GFLOPs, 0.504% FLOPs, 512, 256, kernel_size=(1, 1), stride=(1, 1), bias=False)
#        (bn): BatchNorm2d(0.001 M, 0.006% Params, 0.001 GFLOPs, 0.002% FLOPs, 256, eps=0.001, momentum=0.03, affine=True, track_running_stats=True)
#        (act): SiLU(0.0 M, 0.000% Params, 0.0 GFLOPs, 0.000% FLOPs, inplace=True)
#      )
#      (cv2): Conv(
#        0.132 M, 1.568% Params, 0.268 GFLOPs, 0.506% FLOPs,
#        (conv): Conv2d(0.131 M, 1.562% Params, 0.267 GFLOPs, 0.504% FLOPs, 512, 256, kernel_size=(1, 1), stride=(1, 1), bias=False)
#        (bn): BatchNorm2d(0.001 M, 0.006% Params, 0.001 GFLOPs, 0.002% FLOPs, 256, eps=0.001, momentum=0.03, affine=True, track_running_stats=True)
#        (act): SiLU(0.0 M, 0.000% Params, 0.0 GFLOPs, 0.000% FLOPs, inplace=True)
#      )
#      (cv3): Conv(
#        0.263 M, 3.137% Params, 0.537 GFLOPs, 1.012% FLOPs,
#        (conv): Conv2d(0.262 M, 3.124% Params, 0.535 GFLOPs, 1.008% FLOPs, 512, 512, kernel_size=(1, 1), stride=(1, 1), bias=False)
#        (bn): BatchNorm2d(0.001 M, 0.012% Params, 0.002 GFLOPs, 0.004% FLOPs, 512, eps=0.001, momentum=0.03, affine=True, track_running_stats=True)
#        (act): SiLU(0.0 M, 0.000% Params, 0.0 GFLOPs, 0.000% FLOPs, inplace=True)
#      )
#      (m): Sequential(
#        1.313 M, 15.646% Params, 2.678 GFLOPs, 5.049% FLOPs,
#        (0): Bottleneck(
#          0.656 M, 7.823% Params, 1.339 GFLOPs, 2.525% FLOPs,
#          (cv1): Conv(
#            0.066 M, 0.787% Params, 0.135 GFLOPs, 0.254% FLOPs,
#            (conv): Conv2d(0.066 M, 0.781% Params, 0.134 GFLOPs, 0.252% FLOPs, 256, 256, kernel_size=(1, 1), stride=(1, 1), bias=False)
#            (bn): BatchNorm2d(0.001 M, 0.006% Params, 0.001 GFLOPs, 0.002% FLOPs, 256, eps=0.001, momentum=0.03, affine=True, track_running_stats=True)
#            (act): SiLU(0.0 M, 0.000% Params, 0.0 GFLOPs, 0.000% FLOPs, inplace=True)
#          )
#          (cv2): Conv(
#            0.59 M, 7.036% Params, 1.204 GFLOPs, 2.271% FLOPs,
#            (conv): Conv2d(0.59 M, 7.030% Params, 1.203 GFLOPs, 2.269% FLOPs, 256, 256, kernel_size=(3, 3), stride=(1, 1), padding=(1, 1), bias=False)
#            (bn): BatchNorm2d(0.001 M, 0.006% Params, 0.001 GFLOPs, 0.002% FLOPs, 256, eps=0.001, momentum=0.03, affine=True, track_running_stats=True)
#            (act): SiLU(0.0 M, 0.000% Params, 0.0 GFLOPs, 0.000% FLOPs, inplace=True)
#          )
#        )
#        (1): Bottleneck(
#          0.656 M, 7.823% Params, 1.339 GFLOPs, 2.525% FLOPs,
#          (cv1): Conv(
#            0.066 M, 0.787% Params, 0.135 GFLOPs, 0.254% FLOPs,
#            (conv): Conv2d(0.066 M, 0.781% Params, 0.134 GFLOPs, 0.252% FLOPs, 256, 256, kernel_size=(1, 1), stride=(1, 1), bias=False)
#            (bn): BatchNorm2d(0.001 M, 0.006% Params, 0.001 GFLOPs, 0.002% FLOPs, 256, eps=0.001, momentum=0.03, affine=True, track_running_stats=True)
#            (act): SiLU(0.0 M, 0.000% Params, 0.0 GFLOPs, 0.000% FLOPs, inplace=True)
#          )
#          (cv2): Conv(
#            0.59 M, 7.036% Params, 1.204 GFLOPs, 2.271% FLOPs,
#            (conv): Conv2d(0.59 M, 7.030% Params, 1.203 GFLOPs, 2.269% FLOPs, 256, 256, kernel_size=(3, 3), stride=(1, 1), padding=(1, 1), bias=False)
#            (bn): BatchNorm2d(0.001 M, 0.006% Params, 0.001 GFLOPs, 0.002% FLOPs, 256, eps=0.001, momentum=0.03, affine=True, track_running_stats=True)
#            (act): SiLU(0.0 M, 0.000% Params, 0.0 GFLOPs, 0.000% FLOPs, inplace=True)
#          )
#        )
#      )
#    )
#    (12): Conv(
#      0.132 M, 1.568% Params, 0.268 GFLOPs, 0.506% FLOPs,
#      (conv): Conv2d(0.131 M, 1.562% Params, 0.267 GFLOPs, 0.504% FLOPs, 512, 256, kernel_size=(1, 1), stride=(1, 1), bias=False)
#      (bn): BatchNorm2d(0.001 M, 0.006% Params, 0.001 GFLOPs, 0.002% FLOPs, 256, eps=0.001, momentum=0.03, affine=True, track_running_stats=True)
#      (act): SiLU(0.0 M, 0.000% Params, 0.0 GFLOPs, 0.000% FLOPs, inplace=True)
#    )
#    (13): Upsample(0.0 M, 0.000% Params, 0.002 GFLOPs, 0.004% FLOPs, scale_factor=2.0, mode=nearest)
#    (14): Concat(0.0 M, 0.000% Params, 0.0 GFLOPs, 0.000% FLOPs, )
#    (15): C3(
#      0.526 M, 6.273% Params, 4.295 GFLOPs, 8.098% FLOPs,
#      (cv1): Conv(
#        0.066 M, 0.784% Params, 0.537 GFLOPs, 1.012% FLOPs,
#        (conv): Conv2d(0.066 M, 0.781% Params, 0.535 GFLOPs, 1.008% FLOPs, 512, 128, kernel_size=(1, 1), stride=(1, 1), bias=False)
#        (bn): BatchNorm2d(0.0 M, 0.003% Params, 0.002 GFLOPs, 0.004% FLOPs, 128, eps=0.001, momentum=0.03, affine=True, track_running_stats=True)
#        (act): SiLU(0.0 M, 0.000% Params, 0.0 GFLOPs, 0.000% FLOPs, inplace=True)
#      )
#      (cv2): Conv(
#        0.066 M, 0.784% Params, 0.537 GFLOPs, 1.012% FLOPs,
#        (conv): Conv2d(0.066 M, 0.781% Params, 0.535 GFLOPs, 1.008% FLOPs, 512, 128, kernel_size=(1, 1), stride=(1, 1), bias=False)
#        (bn): BatchNorm2d(0.0 M, 0.003% Params, 0.002 GFLOPs, 0.004% FLOPs, 128, eps=0.001, momentum=0.03, affine=True, track_running_stats=True)
#        (act): SiLU(0.0 M, 0.000% Params, 0.0 GFLOPs, 0.000% FLOPs, inplace=True)
#      )
#      (cv3): Conv(
#        0.066 M, 0.787% Params, 0.539 GFLOPs, 1.016% FLOPs,
#        (conv): Conv2d(0.066 M, 0.781% Params, 0.535 GFLOPs, 1.008% FLOPs, 256, 256, kernel_size=(1, 1), stride=(1, 1), bias=False)
#        (bn): BatchNorm2d(0.001 M, 0.006% Params, 0.004 GFLOPs, 0.008% FLOPs, 256, eps=0.001, momentum=0.03, affine=True, track_running_stats=True)
#        (act): SiLU(0.0 M, 0.000% Params, 0.0 GFLOPs, 0.000% FLOPs, inplace=True)
#      )
#      (m): Sequential(
#        0.329 M, 3.918% Params, 2.682 GFLOPs, 5.057% FLOPs,
#        (0): Bottleneck(
#          0.164 M, 1.959% Params, 1.341 GFLOPs, 2.529% FLOPs,
#          (cv1): Conv(
#            0.017 M, 0.198% Params, 0.136 GFLOPs, 0.256% FLOPs,
#            (conv): Conv2d(0.016 M, 0.195% Params, 0.134 GFLOPs, 0.252% FLOPs, 128, 128, kernel_size=(1, 1), stride=(1, 1), bias=False)
#            (bn): BatchNorm2d(0.0 M, 0.003% Params, 0.002 GFLOPs, 0.004% FLOPs, 128, eps=0.001, momentum=0.03, affine=True, track_running_stats=True)
#            (act): SiLU(0.0 M, 0.000% Params, 0.0 GFLOPs, 0.000% FLOPs, inplace=True)
#          )
#          (cv2): Conv(
#            0.148 M, 1.761% Params, 1.205 GFLOPs, 2.273% FLOPs,
#            (conv): Conv2d(0.147 M, 1.757% Params, 1.203 GFLOPs, 2.269% FLOPs, 128, 128, kernel_size=(3, 3), stride=(1, 1), padding=(1, 1), bias=False)
#            (bn): BatchNorm2d(0.0 M, 0.003% Params, 0.002 GFLOPs, 0.004% FLOPs, 128, eps=0.001, momentum=0.03, affine=True, track_running_stats=True)
#            (act): SiLU(0.0 M, 0.000% Params, 0.0 GFLOPs, 0.000% FLOPs, inplace=True)
#          )
#        )
#        (1): Bottleneck(
#          0.164 M, 1.959% Params, 1.341 GFLOPs, 2.529% FLOPs,
#          (cv1): Conv(
#            0.017 M, 0.198% Params, 0.136 GFLOPs, 0.256% FLOPs,
#            (conv): Conv2d(0.016 M, 0.195% Params, 0.134 GFLOPs, 0.252% FLOPs, 128, 128, kernel_size=(1, 1), stride=(1, 1), bias=False)
#            (bn): BatchNorm2d(0.0 M, 0.003% Params, 0.002 GFLOPs, 0.004% FLOPs, 128, eps=0.001, momentum=0.03, affine=True, track_running_stats=True)
#            (act): SiLU(0.0 M, 0.000% Params, 0.0 GFLOPs, 0.000% FLOPs, inplace=True)
#          )
#          (cv2): Conv(
#            0.148 M, 1.761% Params, 1.205 GFLOPs, 2.273% FLOPs,
#            (conv): Conv2d(0.147 M, 1.757% Params, 1.203 GFLOPs, 2.269% FLOPs, 128, 128, kernel_size=(3, 3), stride=(1, 1), padding=(1, 1), bias=False)
#            (bn): BatchNorm2d(0.0 M, 0.003% Params, 0.002 GFLOPs, 0.004% FLOPs, 128, eps=0.001, momentum=0.03, affine=True, track_running_stats=True)
#            (act): SiLU(0.0 M, 0.000% Params, 0.0 GFLOPs, 0.000% FLOPs, inplace=True)
#          )
#        )
#      )
#    )
#    (16): Conv(
#      0.033 M, 0.394% Params, 0.269 GFLOPs, 0.508% FLOPs,
#      (conv): Conv2d(0.033 M, 0.391% Params, 0.267 GFLOPs, 0.504% FLOPs, 256, 128, kernel_size=(1, 1), stride=(1, 1), bias=False)
#      (bn): BatchNorm2d(0.0 M, 0.003% Params, 0.002 GFLOPs, 0.004% FLOPs, 128, eps=0.001, momentum=0.03, affine=True, track_running_stats=True)
#      (act): SiLU(0.0 M, 0.000% Params, 0.0 GFLOPs, 0.000% FLOPs, inplace=True)
#    )
#    (17): Upsample(0.0 M, 0.000% Params, 0.004 GFLOPs, 0.008% FLOPs, scale_factor=2.0, mode=nearest)
#    (18): Concat(0.0 M, 0.000% Params, 0.0 GFLOPs, 0.000% FLOPs, )
#    (19): C3(
#      0.132 M, 1.574% Params, 4.312 GFLOPs, 8.130% FLOPs,
#      (cv1): Conv(
#        0.017 M, 0.197% Params, 0.539 GFLOPs, 1.016% FLOPs,
#        (conv): Conv2d(0.016 M, 0.195% Params, 0.535 GFLOPs, 1.008% FLOPs, 256, 64, kernel_size=(1, 1), stride=(1, 1), bias=False)
#        (bn): BatchNorm2d(0.0 M, 0.002% Params, 0.004 GFLOPs, 0.008% FLOPs, 64, eps=0.001, momentum=0.03, affine=True, track_running_stats=True)
#        (act): SiLU(0.0 M, 0.000% Params, 0.0 GFLOPs, 0.000% FLOPs, inplace=True)
#      )
#      (cv2): Conv(
#        0.017 M, 0.197% Params, 0.539 GFLOPs, 1.016% FLOPs,
#        (conv): Conv2d(0.016 M, 0.195% Params, 0.535 GFLOPs, 1.008% FLOPs, 256, 64, kernel_size=(1, 1), stride=(1, 1), bias=False)
#        (bn): BatchNorm2d(0.0 M, 0.002% Params, 0.004 GFLOPs, 0.008% FLOPs, 64, eps=0.001, momentum=0.03, affine=True, track_running_stats=True)
#        (act): SiLU(0.0 M, 0.000% Params, 0.0 GFLOPs, 0.000% FLOPs, inplace=True)
#      )
#      (cv3): Conv(
#        0.017 M, 0.198% Params, 0.543 GFLOPs, 1.024% FLOPs,
#        (conv): Conv2d(0.016 M, 0.195% Params, 0.535 GFLOPs, 1.008% FLOPs, 128, 128, kernel_size=(1, 1), stride=(1, 1), bias=False)
#        (bn): BatchNorm2d(0.0 M, 0.003% Params, 0.008 GFLOPs, 0.016% FLOPs, 128, eps=0.001, momentum=0.03, affine=True, track_running_stats=True)
#        (act): SiLU(0.0 M, 0.000% Params, 0.0 GFLOPs, 0.000% FLOPs, inplace=True)
#      )
#      (m): Sequential(
#        0.082 M, 0.982% Params, 2.691 GFLOPs, 5.073% FLOPs,
#        (0): Bottleneck(
#          0.041 M, 0.491% Params, 1.345 GFLOPs, 2.537% FLOPs,
#          (cv1): Conv(
#            0.004 M, 0.050% Params, 0.138 GFLOPs, 0.260% FLOPs,
#            (conv): Conv2d(0.004 M, 0.049% Params, 0.134 GFLOPs, 0.252% FLOPs, 64, 64, kernel_size=(1, 1), stride=(1, 1), bias=False)
#            (bn): BatchNorm2d(0.0 M, 0.002% Params, 0.004 GFLOPs, 0.008% FLOPs, 64, eps=0.001, momentum=0.03, affine=True, track_running_stats=True)
#            (act): SiLU(0.0 M, 0.000% Params, 0.0 GFLOPs, 0.000% FLOPs, inplace=True)
#          )
#          (cv2): Conv(
#            0.037 M, 0.441% Params, 1.207 GFLOPs, 2.277% FLOPs,
#            (conv): Conv2d(0.037 M, 0.439% Params, 1.203 GFLOPs, 2.269% FLOPs, 64, 64, kernel_size=(3, 3), stride=(1, 1), padding=(1, 1), bias=False)
#            (bn): BatchNorm2d(0.0 M, 0.002% Params, 0.004 GFLOPs, 0.008% FLOPs, 64, eps=0.001, momentum=0.03, affine=True, track_running_stats=True)
#            (act): SiLU(0.0 M, 0.000% Params, 0.0 GFLOPs, 0.000% FLOPs, inplace=True)
#          )
#        )
#        (1): Bottleneck(
#          0.041 M, 0.491% Params, 1.345 GFLOPs, 2.537% FLOPs,
#          (cv1): Conv(
#            0.004 M, 0.050% Params, 0.138 GFLOPs, 0.260% FLOPs,
#            (conv): Conv2d(0.004 M, 0.049% Params, 0.134 GFLOPs, 0.252% FLOPs, 64, 64, kernel_size=(1, 1), stride=(1, 1), bias=False)
#            (bn): BatchNorm2d(0.0 M, 0.002% Params, 0.004 GFLOPs, 0.008% FLOPs, 64, eps=0.001, momentum=0.03, affine=True, track_running_stats=True)
#            (act): SiLU(0.0 M, 0.000% Params, 0.0 GFLOPs, 0.000% FLOPs, inplace=True)
#          )
#          (cv2): Conv(
#            0.037 M, 0.441% Params, 1.207 GFLOPs, 2.277% FLOPs,
#            (conv): Conv2d(0.037 M, 0.439% Params, 1.203 GFLOPs, 2.269% FLOPs, 64, 64, kernel_size=(3, 3), stride=(1, 1), padding=(1, 1), bias=False)
#            (bn): BatchNorm2d(0.0 M, 0.002% Params, 0.004 GFLOPs, 0.008% FLOPs, 64, eps=0.001, momentum=0.03, affine=True, track_running_stats=True)
#            (act): SiLU(0.0 M, 0.000% Params, 0.0 GFLOPs, 0.000% FLOPs, inplace=True)
#          )
#        )
#      )
#    )
#    (20): Conv(
#      0.008 M, 0.099% Params, 0.272 GFLOPs, 0.512% FLOPs,
#      (conv): Conv2d(0.008 M, 0.098% Params, 0.267 GFLOPs, 0.504% FLOPs, 128, 64, kernel_size=(1, 1), stride=(1, 1), bias=False)
#      (bn): BatchNorm2d(0.0 M, 0.002% Params, 0.004 GFLOPs, 0.008% FLOPs, 64, eps=0.001, momentum=0.03, affine=True, track_running_stats=True)
#      (act): SiLU(0.0 M, 0.000% Params, 0.0 GFLOPs, 0.000% FLOPs, inplace=True)
#    )
#    (21): Upsample(0.0 M, 0.000% Params, 0.008 GFLOPs, 0.016% FLOPs, scale_factor=2.0, mode=nearest)
#    (22): Concat(0.0 M, 0.000% Params, 0.0 GFLOPs, 0.000% FLOPs, )
#    (23): C3(
#      0.033 M, 0.397% Params, 4.32 GFLOPs, 8.145% FLOPs,
#      (cv1): Conv(
#        0.004 M, 0.050% Params, 0.54 GFLOPs, 1.018% FLOPs,
#        (conv): Conv2d(0.004 M, 0.049% Params, 0.532 GFLOPs, 1.003% FLOPs, 128, 32, kernel_size=(1, 1), stride=(1, 1), bias=False)
#        (bn): BatchNorm2d(0.0 M, 0.001% Params, 0.008 GFLOPs, 0.016% FLOPs, 32, eps=0.001, momentum=0.03, affine=True, track_running_stats=True)
#        (act): SiLU(0.0 M, 0.000% Params, 0.0 GFLOPs, 0.000% FLOPs, inplace=True)
#      )
#      (cv2): Conv(
#        0.004 M, 0.050% Params, 0.54 GFLOPs, 1.018% FLOPs,
#        (conv): Conv2d(0.004 M, 0.049% Params, 0.532 GFLOPs, 1.003% FLOPs, 128, 32, kernel_size=(1, 1), stride=(1, 1), bias=False)
#        (bn): BatchNorm2d(0.0 M, 0.001% Params, 0.008 GFLOPs, 0.016% FLOPs, 32, eps=0.001, momentum=0.03, affine=True, track_running_stats=True)
#        (act): SiLU(0.0 M, 0.000% Params, 0.0 GFLOPs, 0.000% FLOPs, inplace=True)
#      )
#      (cv3): Conv(
#        0.004 M, 0.050% Params, 0.548 GFLOPs, 1.034% FLOPs,
#        (conv): Conv2d(0.004 M, 0.049% Params, 0.532 GFLOPs, 1.003% FLOPs, 64, 64, kernel_size=(1, 1), stride=(1, 1), bias=False)
#        (bn): BatchNorm2d(0.0 M, 0.002% Params, 0.017 GFLOPs, 0.031% FLOPs, 64, eps=0.001, momentum=0.03, affine=True, track_running_stats=True)
#        (act): SiLU(0.0 M, 0.000% Params, 0.0 GFLOPs, 0.000% FLOPs, inplace=True)
#      )
#      (m): Sequential(
#        0.021 M, 0.247% Params, 2.692 GFLOPs, 5.075% FLOPs,
#        (0): Bottleneck(
#          0.01 M, 0.124% Params, 1.346 GFLOPs, 2.538% FLOPs,
#          (cv1): Conv(
#            0.001 M, 0.013% Params, 0.141 GFLOPs, 0.266% FLOPs,
#            (conv): Conv2d(0.001 M, 0.012% Params, 0.133 GFLOPs, 0.251% FLOPs, 32, 32, kernel_size=(1, 1), stride=(1, 1), bias=False)
#            (bn): BatchNorm2d(0.0 M, 0.001% Params, 0.008 GFLOPs, 0.016% FLOPs, 32, eps=0.001, momentum=0.03, affine=True, track_running_stats=True)
#            (act): SiLU(0.0 M, 0.000% Params, 0.0 GFLOPs, 0.000% FLOPs, inplace=True)
#          )
#          (cv2): Conv(
#            0.009 M, 0.111% Params, 1.205 GFLOPs, 2.271% FLOPs,
#            (conv): Conv2d(0.009 M, 0.110% Params, 1.196 GFLOPs, 2.256% FLOPs, 32, 32, kernel_size=(3, 3), stride=(1, 1), padding=(1, 1), bias=False)
#            (bn): BatchNorm2d(0.0 M, 0.001% Params, 0.008 GFLOPs, 0.016% FLOPs, 32, eps=0.001, momentum=0.03, affine=True, track_running_stats=True)
#            (act): SiLU(0.0 M, 0.000% Params, 0.0 GFLOPs, 0.000% FLOPs, inplace=True)
#          )
#        )
#        (1): Bottleneck(
#          0.01 M, 0.124% Params, 1.346 GFLOPs, 2.538% FLOPs,
#          (cv1): Conv(
#            0.001 M, 0.013% Params, 0.141 GFLOPs, 0.266% FLOPs,
#            (conv): Conv2d(0.001 M, 0.012% Params, 0.133 GFLOPs, 0.251% FLOPs, 32, 32, kernel_size=(1, 1), stride=(1, 1), bias=False)
#            (bn): BatchNorm2d(0.0 M, 0.001% Params, 0.008 GFLOPs, 0.016% FLOPs, 32, eps=0.001, momentum=0.03, affine=True, track_running_stats=True)
#            (act): SiLU(0.0 M, 0.000% Params, 0.0 GFLOPs, 0.000% FLOPs, inplace=True)
#          )
#          (cv2): Conv(
#            0.009 M, 0.111% Params, 1.205 GFLOPs, 2.271% FLOPs,
#            (conv): Conv2d(0.009 M, 0.110% Params, 1.196 GFLOPs, 2.256% FLOPs, 32, 32, kernel_size=(3, 3), stride=(1, 1), padding=(1, 1), bias=False)
#            (bn): BatchNorm2d(0.0 M, 0.001% Params, 0.008 GFLOPs, 0.016% FLOPs, 32, eps=0.001, momentum=0.03, affine=True, track_running_stats=True)
#            (act): SiLU(0.0 M, 0.000% Params, 0.0 GFLOPs, 0.000% FLOPs, inplace=True)
#          )
#        )
#      )
#    )
#    (24): Detect(
#      0.012 M, 0.145% Params, 0.398 GFLOPs, 0.751% FLOPs,
#      (m): ModuleList(
#        0.012 M, 0.145% Params, 0.398 GFLOPs, 0.751% FLOPs,
#        (0): Conv2d(0.002 M, 0.021% Params, 0.228 GFLOPs, 0.430% FLOPs, 64, 27, kernel_size=(1, 1), stride=(1, 1))
#        (1): Conv2d(0.003 M, 0.042% Params, 0.114 GFLOPs, 0.214% FLOPs, 128, 27, kernel_size=(1, 1), stride=(1, 1))
#        (2): Conv2d(0.007 M, 0.083% Params, 0.057 GFLOPs, 0.107% FLOPs, 256, 27, kernel_size=(1, 1), stride=(1, 1))
#      )
#    )
#  )
#)
#==============================
#Input shape: (3, 544, 960)
#Flops: 53.04 GFLOPs
#Params: 8.39 M
#==============================
""